tensorflow/frozen_models/tiny/1605371725/model.tflite (tflite, 761360 bytes, 14 tensors)

dense/bias f4 [128]
2.81073 -4.0244613 13.048032 -0.319817 -0.74883914 4.1385593 7.7305894 8.776066
4.139415 1.2911192 4.2971234 -0.232814 7.03501 1.8045125 5.3499956 2.3116558
7.2232046 -1.8469259 4.6825337 0.18416207 -0.6294776 -1.664929 0.25062758 -4.7157297
3.0521157 3.5645013 1.966901 5.573008 4.809276 0.94915056 0.822258 -2.639479
-1.1282616 5.504522 -3.1233006 -3.2902117 1.5824887 6.476324 1.209675 -4.478008
2.9284248 -3.513141 4.2152033 1.2942842 3.3152812 -0.45258316 7.577779 6.029798
4.5174317 8.996882 5.224796 4.5949383 -2.311522 3.7929432 4.1723475 0.58370984
-0.12309595 8.066453 7.505922 5.9033456 2.0483825 -1.2926188 8.29405 4.881466
2.3653333 -1.5146352 6.0083537 9.378628 -1.4228019 7.8266206 10.766443 0.72772884
7.6014614 5.96754 2.457828 9.672209 8.810497 4.1380067 6.3611817 -7.058706
5.0058913 5.379871 8.958409 6.893172 -0.7398696 -0.35037434 1.0963795 -0.029200329
11.434505 -1.7520621 0.7726667 -0.7608851 5.9201508 4.371087 0.19280034 7.667357
1.3766017 7.9498177 3.7166889 8.146602 3.1534052 6.736843 8.168839 5.6470957
2.143366 5.183378 2.1753912 0.83394974 -0.02305872 -1.9114151 -2.061989 0.500339
5.1461296 -2.038462 0.42072928 2.974125 -1.9591438 -0.98756045 4.7836795 0.53836167
1.8100064 6.6614256 2.026026 3.1748204 0.53056484 6.016844 2.0245245 -1.6498691
00000000: 00e3 3340 63c8 80c0 bdc4 5041 0ebf a3be
00000010: ecb3 3fbf 146f 8440 fd60 f740 c46a 0c41
00000020: 1676 8440 6543 a53f 0982 8940 cb66 6ebe
00000030: cd1e e140 44fa e63f 2a33 ab40 2bf2 1340
00000040: 7e24 e740 1168 ecbf 51d7 9540 fb94 3c3e
00000050: 7225 21bf 651c d5bf 4252 803e 42e7 96c0
00000060: dd55 4340 ca20 6440 69c3 fb3f 1556 b240
00000070: 97e5 9940 88fb 723f 807f 523f 39ed 28c0
00000080: e06a 90bf 0b25 b040 28e4 47c0 d492 52c0
00000090: fd8e ca3f 0c3e cf40 a1d6 9a3f d74b 8fc0
000000a0: 506b 3b40 4dd7 60c0 f2e2 8640 1bab a53f
000000b0: 912d 5440 fbb8 e7be 2a7d f240 1bf4 c040
000000c0: cd8e 9040 3bf3 0f41 8731 a740 bc09 9340
000000d0: faef 13c0 95bf 7240 df83 8540 026e 153f
000000e0: bb19 fcbd 3110 0141 8330 f040 35e8 bc40
000000f0: b318 0340 8874 a5bf 6eb4 0441 f834 9c40
00000100: 9f61 1740 91df c1bf 6f44 c040 dc0e 1641
00000110: 5f1e b6bf ad73 fa40 5a43 2c41 704c 3a3f
00000120: 2c3f f340 16f6 be40 0e4d 1d40 5ec1 1a41
00000130: ccf7 0c41 8d6a 8440 cd8e cb40 ebe0 e1c0
00000140: 4330 a040 e727 ac40 a555 0f41 dd94 dc40
00000150: 1868 3dbf 4464 b3be 2a56 8c3f 8735 efbc
00000160: bcf3 3641 9243 e0bf 7ccd 453f 5ec9 42bf
00000170: e071 bd40 f2df 8b40 746d 453e fd5a f540
00000180: 7c34 b03f e864 fe40 3bde 6d40 7b58 0241
00000190: 64d1 4940 3894 d740 91b3 0241 02b5 b440
000001a0: e92c 0940 3cde a540 9c39 0b40 bb7d 553f
000001b0: a4e5 bcbc 40a9 f4bf a1f7 03c0 3716 003f
000001c0: 18ad a440 2976 02c0 d469 d73e 1058 3e40
000001d0: 39c5 fabf c3d0 7cbf e713 9940 12d2 093f
000001e0: 4aae e73f 662a d540 69aa 0140 4230 4b40
000001f0: 19d3 073f fc89 c040 cf91 0140 e92e d3bf

std.constant6 f4 [768]
1.6052363 4.7538915 0.9280045 -0.028141003 0.5359041 -1.3170701 -0.119168915 -0.0060035335
-0.38342464 -0.35900587 -0.7365198 -1.8021219 -0.5287354 3.4804573 -0.46520603 0.43687093
0.6080862 -0.4374407 -0.47884116 0.30094856 0.79708374 4.3570395 -1.2288395 -0.7240387
0.05051496 2.3409405 -1.4116943 0.6540734 0.40689293 -0.13453546 -0.045658186 -0.55090535
1.5707737 -1.7005726 -0.47286868 -0.72077185 -0.19414857 2.0520625 -0.17960252 -0.11653079
-1.1219505 -0.880982 -0.2458327 0.41821015 -0.7730406 -0.19558167 0.8193459 -0.036505163
0.03434705 -0.085903324 0.47630486 0.5393856 -0.040826563 1.6385996 -0.7002394 1.0952924
-0.20308864 -1.0425086 0.4485099 2.5470355 -0.39052257 -0.3324124 -0.077016436 -0.40731633
-0.31528977 1.3733147 0.56499493 0.7108367 -0.52770245 -0.05921015 -0.59437746 0.21859331
0.16511433 0.6345732 1.0255562 -0.13135055 0.5365537 -1.097069 -0.18659881 -0.8561911
0.021071468 -0.6255855 0.32823542 0.14966491 -2.0328627 1.9260662 -1.5164274 2.0200012
0.041140016 0.45873195 0.06822513 0.025510447 0.9260909 -0.16243744 -1.5828146 0.110218376
-0.46345624 -0.12740438 -0.7808712 2.2931762 -3.1320832 -0.15071602 -0.22949632 0.51545304
-0.15009946 -0.042653322 -0.39350244 -0.23432176 -1.0367061 -0.44633472 -0.09280307 -0.06289607
-0.7607992 2.6722262 -0.11739149 -0.44256505 -0.042207003 -0.37976658 0.79608274 -1.9932771
0.3789308 -0.4927215 -0.56608695 1.2320371 0.24842195 -0.3033209 -0.0018983711 -0.12051407
0.09694625 -0.1400339 -0.44836935 2.0033882 -1.4405802 -0.054741334 1.9180533 0.71873516
0.55270654 -0.1671667 -0.118250005 -0.27475736 0.40805474 -0.36401168 -0.044836573 0.056141045
0.4582589 -0.19062716 4.665446 0.5904378 2.7603207 2.258502 0.27753592 0.4929329
-0.11452195 -0.18190838 -0.037136286 1.6731837 3.5293045 1.1021024 -0.3326468 -0.4015077
0.5640123 -0.08946494 -0.15971611 -0.34766132 -0.37938184 -0.12145408 0.14573024 -0.03976309
1.3372838 -0.122134514 -0.28494328 -0.40481693 0.10763023 1.3764462 -1.3931798 -0.2905858
0.099472016 0.6256738 -0.45528334 -0.35817444 2.4142094 1.1050543 -0.31727296 -1.0878696
-0.13010132 -0.1230288 -0.16907296 -1.2894912 0.33502117 1.7567006 -0.1577671 0.73665226
0.16576122 -1.1132567 -0.31788963 -0.519491 -0.6346499 -0.10935556 -0.43672746 2.3245652
-0.101523705 -0.14066352 0.0031445296 5.7836013 -2.0453246 -0.47901866 1.0814922 0.23901586
-0.07103535 -0.75863457 -0.06542285 5.144859 -0.09825585 -0.18765251 -0.06694148 -0.2293303
0.19706154 0.5853428 1.5723292 0.8241008 -0.24140401 3.4321833 -0.22223277 0.3892327
-0.1313143 2.5753362 -0.22546272 -0.020924637 2.149669 0.0025793854 -0.37717777 -0.5861378
0.4384518 -1.2866871 -0.50046456 0.11039902 2.8290138 0.32352224 0.5865655 -0.3269406
-0.45402762 -0.14294419 -0.48749024 1.0094267 3.8905609 -0.35690823 1.3424402 -0.09198859
1.3279353 -0.042821426 0.54173684 0.017621398 -1.1006428 -0.17756833 0.59171826 -0.04719849
00000000: 6278 cd3f e11f 9840 b491 6d3f f687 e6bc
00000010: 0331 093f c195 a8bf d50e f4bd 4ab9 c4bb
00000020: 3c50 c4be 9ecf b7be 908c 3cbf eeab e6bf
00000030: 345b 07bf d0bf 5e40 7c2f eebe 8cad df3e
00000040: 8aab 1b3f 3af8 dfbe ab2a f5be ee15 9a3e
00000050: ae0d 4c3f de6c 8b40 9d4a 9dbf 9a5a 39bf
00000060: c6e8 4e3d f8d1 1540 66b2 b4bf 5b71 273f
00000070: 4554 d03e aac3 09be 1404 3bbd 2208 0dbf
00000080: 1d0f c93f 5dac d9bf d81b f2be 8184 38bf
00000090: e2ce 46be fe54 0340 b9e9 37be b2a7 eebd
000000a0: 139c 8fbf 0988 61bf 91bb 7bbe a41f d63e
000000b0: fde5 45bf 9046 48be a7c0 513f 7086 15bd
000000c0: 7eaf 0c3d 15ee afbd 3bde f33e 2d15 0a3f
000000d0: c139 27bd a2bd d13f e442 33bf 8b32 8c3f
000000e0: 78f6 4fbe ec70 85bf 17a3 e53e a102 2340
000000f0: 93f2 c7be f531 aabe cbba 9dbd c48b d0be
00000100: a96d a1be c7c8 af3f 82a3 103f 65f9 353f
00000110: 8217 07bf 5886 72bd 1f29 18bf edd6 5f3e
00000120: bb13 293e 6473 223f 6d45 833f c280 06be
00000130: 955b 093f c26c 8cbf c213 3fbe 572f 5bbf
00000140: 129e ac3c 5f26 20bf 790e a83e c241 193e
00000150: 6c1a 02c0 5689 f63f 4b1a c2bf b347 0140
00000160: 6f82 283d eade ea3e 9eb9 8b3d 49fb d03c
00000170: 4b14 6d3f 0056 26be ab99 cabf 2cba e13d
00000180: 234a edbe 4b76 02be 2de7 47bf 66c3 1240
00000190: 0d74 48c0 4d55 1abe 1501 6bbe bbf4 033f
000001a0: acb3 19be 40b5 2ebd 2779 c9be 0bf2 6fbe
000001b0: c9b2 84bf fc85 e4be 890f bebd a8cf 80bd
000001c0: bdc3 42bf c105 2b40 f36a f0bd e397 e2be
000001d0: 40e1 2cbd c470 c2be 14cc 4b3f b423 ffbf
000001e0: 3803 c23e fe45 fcbe 13eb 10bf 64b3 9d3f
000001f0: 5362 7e3e e14c 9bbe c4d2 f8ba 15d0 f6bd
00000200: c18b c63d 0c65 0fbe ab90 e5be 8337 0040
00000210: ef64 b8bf 7338 60bd c582 f53f 07ff 373f
00000220: 2d7e 0d3f bf2d 2bbe 0f2d f2bd ffac 8cbe
00000230: 8dec d03e bd5f babe 8ea6 37bd 27f4 653d
00000240: e9a0 ea3e c433 43be 554b 9540 ef26 173f
00000250: 18a9 3040 4c8b 1040 3019 8e3e b361 fc3e
00000260: 7c8a eabd 3146 3abe 381c 18bd e22a d63f
00000270: 20e0 6140 b111 8d3f ae50 aabe 6b92 cdbe
00000280: 1c63 103f 6539 b7bd 9f8c 23be aa00 b2be
00000290: 563e c2be ebbc f8bd 4f3a 153e 9fde 22bd
000002a0: 1e2c ab3f a921 fabd 16e4 91be 2a44 cfbe
000002b0: 3d6d dc3d 642f b03f b753 b2bf a9c7 94be
000002c0: fcb7 cb3d 282c 203f e61a e9be a462 b7be
000002d0: 6882 1a40 6b72 8d3f 9a71 a2be 503f 8bbf
000002e0: 4839 05be 86f6 fbbd 7621 2dbe 0c0e a5bf
000002f0: e587 ab3e 91db e03f b38d 21be 3e95 3c3f
00000300: 4fbd 293e 327f 8ebf 6ec2 a2be 5dfd 04bf
00000310: 6a78 22bf cff5 dfbd be9a dfbe adc5 1440
00000320: a9eb cfbd 190a 10be 7414 4e3b 4313 b940
00000330: 99e6 02c0 ef41 f5be 566e 8a3f 93c0 743e
00000340: fb7a 91bd e035 42bf 6afc 85bd afa2 a440
00000350: 5d3a c9bd fb27 40be 9d18 89bd 90d5 6abe
00000360: 80ca 493e 07d9 153f 1542 c93f 45f8 523f
00000370: 9d32 77be e4a8 5b40 fd90 63be 8249 c73e
00000380: 4177 06be 4fd2 2440 b3df 66be 256a abbc
00000390: 2d94 0940 e80a 293b 721d c1be 200d 16bf
000003a0: c17c e03e 2ab2 a4bf 721e 00bf e218 e23d
000003b0: 900e 3540 b5a4 a53e 2829 163f c264 a7be
000003c0: 4f76 e8be f65f 12be 5298 f9be e534 813f
000003d0: f3fe 7840 adbc b6be 15d5 ab3f 8464 bcbd
000003e0: c9f9 a93f 8565 2fbd 44af 0a3f c05a 903c
000003f0: dde1 8cbf 79d4 35be d97a 173f 3453 41bd

std.constant7 f4 [768]
1.6052363 4.7538915 0.9280045 -0.028141003 0.5359041 -1.3170701 -0.119168915 -0.0060035335
-0.38342464 -0.35900587 -0.7365198 -1.8021219 -0.5287354 3.4804573 -0.46520603 0.43687093
0.6080862 -0.4374407 -0.47884116 0.30094856 0.79708374 4.3570395 -1.2288395 -0.7240387
0.05051496 2.3409405 -1.4116943 0.6540734 0.40689293 -0.13453546 -0.045658186 -0.55090535
1.5707737 -1.7005726 -0.47286868 -0.72077185 -0.19414857 2.0520625 -0.17960252 -0.11653079
-1.1219505 -0.880982 -0.2458327 0.41821015 -0.7730406 -0.19558167 0.8193459 -0.036505163
0.03434705 -0.085903324 0.47630486 0.5393856 -0.040826563 1.6385996 -0.7002394 1.0952924
-0.20308864 -1.0425086 0.4485099 2.5470355 -0.39052257 -0.3324124 -0.077016436 -0.40731633
-0.31528977 1.3733147 0.56499493 0.7108367 -0.52770245 -0.05921015 -0.59437746 0.21859331
0.16511433 0.6345732 1.0255562 -0.13135055 0.5365537 -1.097069 -0.18659881 -0.8561911
0.021071468 -0.6255855 0.32823542 0.14966491 -2.0328627 1.9260662 -1.5164274 2.0200012
0.041140016 0.45873195 0.06822513 0.025510447 0.9260909 -0.16243744 -1.5828146 0.110218376
-0.46345624 -0.12740438 -0.7808712 2.2931762 -3.1320832 -0.15071602 -0.22949632 0.51545304
-0.15009946 -0.042653322 -0.39350244 -0.23432176 -1.0367061 -0.44633472 -0.09280307 -0.06289607
-0.7607992 2.6722262 -0.11739149 -0.44256505 -0.042207003 -0.37976658 0.79608274 -1.9932771
0.3789308 -0.4927215 -0.56608695 1.2320371 0.24842195 -0.3033209 -0.0018983711 -0.12051407
0.09694625 -0.1400339 -0.44836935 2.0033882 -1.4405802 -0.054741334 1.9180533 0.71873516
0.55270654 -0.1671667 -0.118250005 -0.27475736 0.40805474 -0.36401168 -0.044836573 0.056141045
0.4582589 -0.19062716 4.665446 0.5904378 2.7603207 2.258502 0.27753592 0.4929329
-0.11452195 -0.18190838 -0.037136286 1.6731837 3.5293045 1.1021024 -0.3326468 -0.4015077
0.5640123 -0.08946494 -0.15971611 -0.34766132 -0.37938184 -0.12145408 0.14573024 -0.03976309
1.3372838 -0.122134514 -0.28494328 -0.40481693 0.10763023 1.3764462 -1.3931798 -0.2905858
0.099472016 0.6256738 -0.45528334 -0.35817444 2.4142094 1.1050543 -0.31727296 -1.0878696
-0.13010132 -0.1230288 -0.16907296 -1.2894912 0.33502117 1.7567006 -0.1577671 0.73665226
0.16576122 -1.1132567 -0.31788963 -0.519491 -0.6346499 -0.10935556 -0.43672746 2.3245652
-0.101523705 -0.14066352 0.0031445296 5.7836013 -2.0453246 -0.47901866 1.0814922 0.23901586
-0.07103535 -0.75863457 -0.06542285 5.144859 -0.09825585 -0.18765251 -0.06694148 -0.2293303
0.19706154 0.5853428 1.5723292 0.8241008 -0.24140401 3.4321833 -0.22223277 0.3892327
-0.1313143 2.5753362 -0.22546272 -0.020924637 2.149669 0.0025793854 -0.37717777 -0.5861378
0.4384518 -1.2866871 -0.50046456 0.11039902 2.8290138 0.32352224 0.5865655 -0.3269406
-0.45402762 -0.14294419 -0.48749024 1.0094267 3.8905609 -0.35690823 1.3424402 -0.09198859
1.3279353 -0.042821426 0.54173684 0.017621398 -1.1006428 -0.17756833 0.59171826 -0.04719849
00000000: 6278 cd3f e11f 9840 b491 6d3f f687 e6bc
00000010: 0331 093f c195 a8bf d50e f4bd 4ab9 c4bb
00000020: 3c50 c4be 9ecf b7be 908c 3cbf eeab e6bf
00000030: 345b 07bf d0bf 5e40 7c2f eebe 8cad df3e
00000040: 8aab 1b3f 3af8 dfbe ab2a f5be ee15 9a3e
00000050: ae0d 4c3f de6c 8b40 9d4a 9dbf 9a5a 39bf
00000060: c6e8 4e3d f8d1 1540 66b2 b4bf 5b71 273f
00000070: 4554 d03e aac3 09be 1404 3bbd 2208 0dbf
00000080: 1d0f c93f 5dac d9bf d81b f2be 8184 38bf
00000090: e2ce 46be fe54 0340 b9e9 37be b2a7 eebd
000000a0: 139c 8fbf 0988 61bf 91bb 7bbe a41f d63e
000000b0: fde5 45bf 9046 48be a7c0 513f 7086 15bd
000000c0: 7eaf 0c3d 15ee afbd 3bde f33e 2d15 0a3f
000000d0: c139 27bd a2bd d13f e442 33bf 8b32 8c3f
000000e0: 78f6 4fbe ec70 85bf 17a3 e53e a102 2340
000000f0: 93f2 c7be f531 aabe cbba 9dbd c48b d0be
00000100: a96d a1be c7c8 af3f 82a3 103f 65f9 353f
00000110: 8217 07bf 5886 72bd 1f29 18bf edd6 5f3e
00000120: bb13 293e 6473 223f 6d45 833f c280 06be
00000130: 955b 093f c26c 8cbf c213 3fbe 572f 5bbf
00000140: 129e ac3c 5f26 20bf 790e a83e c241 193e
00000150: 6c1a 02c0 5689 f63f 4b1a c2bf b347 0140
00000160: 6f82 283d eade ea3e 9eb9 8b3d 49fb d03c
00000170: 4b14 6d3f 0056 26be ab99 cabf 2cba e13d
00000180: 234a edbe 4b76 02be 2de7 47bf 66c3 1240
00000190: 0d74 48c0 4d55 1abe 1501 6bbe bbf4 033f
000001a0: acb3 19be 40b5 2ebd 2779 c9be 0bf2 6fbe
000001b0: c9b2 84bf fc85 e4be 890f bebd a8cf 80bd
000001c0: bdc3 42bf c105 2b40 f36a f0bd e397 e2be
000001d0: 40e1 2cbd c470 c2be 14cc 4b3f b423 ffbf
000001e0: 3803 c23e fe45 fcbe 13eb 10bf 64b3 9d3f
000001f0: 5362 7e3e e14c 9bbe c4d2 f8ba 15d0 f6bd
00000200: c18b c63d 0c65 0fbe ab90 e5be 8337 0040
00000210: ef64 b8bf 7338 60bd c582 f53f 07ff 373f
00000220: 2d7e 0d3f bf2d 2bbe 0f2d f2bd ffac 8cbe
00000230: 8dec d03e bd5f babe 8ea6 37bd 27f4 653d
00000240: e9a0 ea3e c433 43be 554b 9540 ef26 173f
00000250: 18a9 3040 4c8b 1040 3019 8e3e b361 fc3e
00000260: 7c8a eabd 3146 3abe 381c 18bd e22a d63f
00000270: 20e0 6140 b111 8d3f ae50 aabe 6b92 cdbe
00000280: 1c63 103f 6539 b7bd 9f8c 23be aa00 b2be
00000290: 563e c2be ebbc f8bd 4f3a 153e 9fde 22bd
000002a0: 1e2c ab3f a921 fabd 16e4 91be 2a44 cfbe
000002b0: 3d6d dc3d 642f b03f b753 b2bf a9c7 94be
000002c0: fcb7 cb3d 282c 203f e61a e9be a462 b7be
000002d0: 6882 1a40 6b72 8d3f 9a71 a2be 503f 8bbf
000002e0: 4839 05be 86f6 fbbd 7621 2dbe 0c0e a5bf
000002f0: e587 ab3e 91db e03f b38d 21be 3e95 3c3f
00000300: 4fbd 293e 327f 8ebf 6ec2 a2be 5dfd 04bf
00000310: 6a78 22bf cff5 dfbd be9a dfbe adc5 1440
00000320: a9eb cfbd 190a 10be 7414 4e3b 4313 b940
00000330: 99e6 02c0 ef41 f5be 566e 8a3f 93c0 743e
00000340: fb7a 91bd e035 42bf 6afc 85bd afa2 a440
00000350: 5d3a c9bd fb27 40be 9d18 89bd 90d5 6abe
00000360: 80ca 493e 07d9 153f 1542 c93f 45f8 523f
00000370: 9d32 77be e4a8 5b40 fd90 63be 8249 c73e
00000380: 4177 06be 4fd2 2440 b3df 66be 256a abbc
00000390: 2d94 0940 e80a 293b 721d c1be 200d 16bf
000003a0: c17c e03e 2ab2 a4bf 721e 00bf e218 e23d
000003b0: 900e 3540 b5a4 a53e 2829 163f c264 a7be
000003c0: 4f76 e8be f65f 12be 5298 f9be e534 813f
000003d0: f3fe 7840 adbc b6be 15d5 ab3f 8464 bcbd
000003e0: c9f9 a93f 8565 2fbd 44af 0a3f c05a 903c
000003f0: dde1 8cbf 79d4 35be d97a 173f 3453 41bd

std.constant8 f4 [768]
0.25246838 -0.14451127 -0.22954749 -0.12174816 0.17300855 -0.32405967 -0.17294681 -0.2024874
1.3029232 0.43274742 -0.57797396 -0.3668097 -0.17892143 -0.74257326 -0.102368824 0.2860961
-0.16077143 0.009013722 0.99410963 -0.35032508 -0.26331297 -0.094700746 -0.31612405 -0.11970914
-0.05077892 -0.14934385 0.6185578 -0.57023495 -0.08171522 0.5086073 -0.13608381 -0.2957542
0.02382369 0.002754143 -0.023270654 -0.35629407 -0.012662581 0.05317662 -0.12463512 0.4307888
-0.7249863 2.2179682 -0.46903715 -0.08027254 -0.049713667 -0.18425575 -0.3982835 -0.45218876
-0.07053379 0.4189786 -0.38273364 0.6299373 -0.15230426 -1.1311918 0.0065011894 0.53490204
0.37828332 0.5107463 0.6676841 -0.1976761 -0.43966395 -0.16728407 1.882183 -0.046348933
-0.26690468 0.29666823 -0.8062559 1.6426178 0.48277378 0.13063844 -0.02457561 0.58738494
-0.10147349 -1.0433 -0.21595295 1.4717982 0.4801554 -0.7655877 -0.081981905 0.0170555
-0.40196094 0.25922355 -0.23900123 -0.02895538 0.7595701 0.010410149 0.1316651 -0.29728842
-0.018280368 -0.19615592 -0.17577894 -0.050478794 -0.35104236 -0.4488496 0.06808496 -0.28769368
0.8909923 0.02621414 1.1068021 -0.1614682 0.24954888 -0.076209046 0.16918474 0.38730526
-0.016282905 -0.15726538 -0.052092515 0.16973335 0.09163172 1.8149244 -0.5434798 0.12994856
0.21991177 -0.22947153 0.109355904 -2.540664 -0.23639295 1.2373044 0.2770847 -0.19537486
-0.21838108 0.82975495 0.5415371 -0.080967784 -0.2816031 0.20217001 -0.38866827 -0.3578457
0.35990688 -0.29230246 2.908978 0.0050941594 0.4397499 0.010360121 -0.037914507 0.39272398
0.031238051 0.0015764019 0.24254495 -0.11335912 -0.18260707 1.3495089 -0.09746085 0.5071722
0.089367874 -0.31028104 0.17869711 -0.020278739 0.071059056 -0.3289392 0.023046115 -0.18618241
-0.2284909 -0.023957217 0.30858737 -0.923762 0.7545929 -0.20174918 -0.24336754 -0.1279111
0.77337587 -0.095164604 0.7292806 0.42595452 -0.0677696 0.09027264 0.043417435 0.4184698
-0.3991235 -0.5702871 -0.1947184 -0.9297728 -0.11853342 -0.08600197 0.29585373 -0.32210937
-0.33006027 -0.018433837 -0.15366927 0.025035959 -0.15160838 -0.042793036 -0.085993245 0.27883625
-0.30537412 2.253247 -0.025984848 0.13365524 -0.20287734 0.7283863 1.3417703 0.19799888
0.021234253 1.0144892 -0.20701423 -0.20449294 -0.38327676 0.068764 -0.10931425 0.12286829
-0.35080996 0.0060618375 -0.10311547 -0.55339247 -0.18045087 0.35567415 0.14229606 0.19002296
-0.11104755 -0.21548711 0.330393 -0.567208 -0.12572436 -0.28651825 0.0063460968 0.6335233
-0.1264228 0.20056908 -0.06770904 -0.057215102 0.71635425 -0.2157828 -1.7633424 0.75218844
0.096919335 0.15960169 -1.4555813 -0.58610547 -0.10400726 0.3693405 -0.32667595 0.4617608
0.18128353 0.51803386 0.8998851 -0.7921371 0.15109375 -0.5424449 -0.6170567 -0.011654634
0.23187341 0.6104389 -0.22029437 -0.1565923 -0.4458985 -0.016270349 -0.24970639 0.0038192866
-0.31677747 -0.07219234 0.036238458 0.31196916 -0.46948195 -0.20896678 0.22747093 0.74688643
00000000: 8943 813e c3fa 13be 7f0e 6bbe 1957 f9bd
00000010: 2729 313e 26eb a5be f818 31be db58 4fbe
00000020: 30c6 a63f 1291 dd3e 1af6 13bf 7bce bbbe
00000030: 2e37 37be 4819 3ebf bfa6 d1bd 307b 923e
00000040: 44a1 24be 4aae 133c f87d 7e3f cf5d b3be
00000050: f5d0 86be 77f2 c1bd 03db a1be 112a f5bd
00000060: 8ffd 4fbd 98ed 18be ce59 1e3f ebfa 11bf
00000070: 4f5a a7bd 1734 023f 8e59 0bbe 186d 97be
00000080: e629 c33c da7e 343b 19a2 bebc 2d6c b6be
00000090: b776 4fbc bacf 593d b340 ffbd 5990 dc3e
000000a0: b498 39bf 31f3 0d40 a325 f0be ee65 a4bd
000000b0: 8fa0 4bbd 8aad 3cbe d1eb cbbe 4985 e7be
000000c0: 0574 90bd 5d84 d63e aaf5 c3be 9243 213f
000000d0: a6f5 1bbe e5ca 90bf ee07 d53b 57ef 083f
000000e0: 5aae c13e 45c0 023f 58ed 2a3f 9b6b 4abe
000000f0: a21b e1be 844c 2bbe 5feb f03f 61d8 3dbd
00000100: bba7 88be e6e4 973e c966 4ebf 4d41 d23f
00000110: 202e f73e 15c6 053e ca52 c9bc dc5e 163f
00000120: 55d1 cfbd db8a 85bf c522 5dbe e263 bc3f
00000130: eed6 f53e 8efd 43bf 21e6 a7bd fab7 8b3c
00000140: d3cd cdbe f3b8 843e bdbc 74be d533 edbc
00000150: 3073 423f 548f 2a3c 37d3 063e 3036 98be
00000160: b6c0 95bc 19dd 48be 65ff 33be dac2 4ebd
00000170: d3bb b3be 9dcf e5be 2170 8b3d 964c 93be
00000180: 1218 643f 09bf d63c b1ab 8d3f eb57 25be
00000190: be89 7f3e 7d13 9cbd c43e 2d3e e04c c63e
000001a0: ba63 85bc 2d0a 21be f65e 55bd 94ce 2d3e
000001b0: 69a9 bb3d 714f e83f 7e21 0bbf 3c11 053e
000001c0: 8d30 613e 96fa 6abe fdf5 df3d 3d9a 22c0
000001d0: fe10 72be fe5f 9e3f 0cde 8d3e 5910 48be
000001e0: 4a9f 5fbe d26a 543f 2da2 0a3f 70d2 a5bd
000001f0: 482e 90be a805 4f3e 87ff c6be 8d37 b7be
00000200: b745 b83e aba8 95be b22c 3a40 e8ec a63b
00000210: e626 e13e 7fbd 293c 3e4c 1bbd 1e13 c93e
00000220: f1e6 ff3c 459f ce3a b45d 783e d428 e8bd
00000230: 59fd 3abe b5bc ac3f 8e99 c7bd 0ad6 013f
00000240: 8106 b73d 28dd 9ebe 60fc 363e 991f a6bc
00000250: 6987 913d b86a a8be 35cb bc3c 9aa6 3ebe
00000260: 85f9 69be ed41 c4bc 2aff 9d3e ab7b 6cbf
00000270: 002d 413f 5697 4ebe 5735 79be 21fb 02be
00000280: f6fb 453f a9e5 c2bd 22b2 3a3f b616 da3e
00000290: caca 8abd dde0 b83d 7bd6 313d ac41 d63e
000002a0: ea59 ccbe 56fe 11bf 4364 47be 9705 6ebf
000002b0: a6c1 f2bd cd21 b0bd 247a 973e 85eb a4be
000002c0: a9fd a8be 8f02 97bc 7a5b 1dbe 3618 cd3c
000002d0: 3a3f 1bbe c047 2fbd 3a1d b0bd a0c3 8e3e
000002e0: ff59 9cbe 3335 1040 2dde d4bc ebdc 083e
000002f0: 14bf 4fbe 8677 3a3f 21bf ab3f 38c0 4a3e
00000300: 75f3 ad3c c8da 813f 8afb 53be 9966 51be
00000310: da3c c4be 24d4 8c3d 26e0 dfbd 5fa2 fb3d
00000320: 5d9d b3be 61a2 c63b 342e d3bd 21ab 0dbf
00000330: 1dc8 38be ec1a b63e 0fb6 113e 6195 423e
00000340: e66c e3bd a7a8 5cbe 4529 a93e 8b34 11bf
00000350: e3bd 00be 85b2 92be ebf2 cf3b 952e 223f
00000360: fa74 01be fb61 4d3e 0aab 8abd 625a 6abd
00000370: fe62 373f 2bf6 5cbe 34b5 e1bf 6c8f 403f
00000380: a57d c63d a06e 233e 7d50 babf 020b 16bf
00000390: c201 d5bd 331a bd3e 1242 a7be e96b ec3e
000003a0: 64a2 393e de9d 043f df5e 663f 7fc9 4abf
000003b0: 52b8 1a3e abdd 0abf 6ef7 1dbf 14f3 3ebc
000003c0: 3970 6d3e b945 1c3f d994 61be bb59 20be
000003d0: cf4c e4be 6549 85bc 08b3 7fbe ff4c 7a3b
000003e0: a830 a2be 94d9 93bd c76e 143d 6cba 9f3e
000003f0: f05f f0be 63fb 55be 24ee 683e f333 3f3f

std.constant9 f4 [768]
0.25246838 -0.14451127 -0.22954749 -0.12174816 0.17300855 -0.32405967 -0.17294681 -0.2024874
1.3029232 0.43274742 -0.57797396 -0.3668097 -0.17892143 -0.74257326 -0.102368824 0.2860961
-0.16077143 0.009013722 0.99410963 -0.35032508 -0.26331297 -0.094700746 -0.31612405 -0.11970914
-0.05077892 -0.14934385 0.6185578 -0.57023495 -0.08171522 0.5086073 -0.13608381 -0.2957542
0.02382369 0.002754143 -0.023270654 -0.35629407 -0.012662581 0.05317662 -0.12463512 0.4307888
-0.7249863 2.2179682 -0.46903715 -0.08027254 -0.049713667 -0.18425575 -0.3982835 -0.45218876
-0.07053379 0.4189786 -0.38273364 0.6299373 -0.15230426 -1.1311918 0.0065011894 0.53490204
0.37828332 0.5107463 0.6676841 -0.1976761 -0.43966395 -0.16728407 1.882183 -0.046348933
-0.26690468 0.29666823 -0.8062559 1.6426178 0.48277378 0.13063844 -0.02457561 0.58738494
-0.10147349 -1.0433 -0.21595295 1.4717982 0.4801554 -0.7655877 -0.081981905 0.0170555
-0.40196094 0.25922355 -0.23900123 -0.02895538 0.7595701 0.010410149 0.1316651 -0.29728842
-0.018280368 -0.19615592 -0.17577894 -0.050478794 -0.35104236 -0.4488496 0.06808496 -0.28769368
0.8909923 0.02621414 1.1068021 -0.1614682 0.24954888 -0.076209046 0.16918474 0.38730526
-0.016282905 -0.15726538 -0.052092515 0.16973335 0.09163172 1.8149244 -0.5434798 0.12994856
0.21991177 -0.22947153 0.109355904 -2.540664 -0.23639295 1.2373044 0.2770847 -0.19537486
-0.21838108 0.82975495 0.5415371 -0.080967784 -0.2816031 0.20217001 -0.38866827 -0.3578457
0.35990688 -0.29230246 2.908978 0.0050941594 0.4397499 0.010360121 -0.037914507 0.39272398
0.031238051 0.0015764019 0.24254495 -0.11335912 -0.18260707 1.3495089 -0.09746085 0.5071722
0.089367874 -0.31028104 0.17869711 -0.020278739 0.071059056 -0.3289392 0.023046115 -0.18618241
-0.2284909 -0.023957217 0.30858737 -0.923762 0.7545929 -0.20174918 -0.24336754 -0.1279111
0.77337587 -0.095164604 0.7292806 0.42595452 -0.0677696 0.09027264 0.043417435 0.4184698
-0.3991235 -0.5702871 -0.1947184 -0.9297728 -0.11853342 -0.08600197 0.29585373 -0.32210937
-0.33006027 -0.018433837 -0.15366927 0.025035959 -0.15160838 -0.042793036 -0.085993245 0.27883625
-0.30537412 2.253247 -0.025984848 0.13365524 -0.20287734 0.7283863 1.3417703 0.19799888
0.021234253 1.0144892 -0.20701423 -0.20449294 -0.38327676 0.068764 -0.10931425 0.12286829
-0.35080996 0.0060618375 -0.10311547 -0.55339247 -0.18045087 0.35567415 0.14229606 0.19002296
-0.11104755 -0.21548711 0.330393 -0.567208 -0.12572436 -0.28651825 0.0063460968 0.6335233
-0.1264228 0.20056908 -0.06770904 -0.057215102 0.71635425 -0.2157828 -1.7633424 0.75218844
0.096919335 0.15960169 -1.4555813 -0.58610547 -0.10400726 0.3693405 -0.32667595 0.4617608
0.18128353 0.51803386 0.8998851 -0.7921371 0.15109375 -0.5424449 -0.6170567 -0.011654634
0.23187341 0.6104389 -0.22029437 -0.1565923 -0.4458985 -0.016270349 -0.24970639 0.0038192866
-0.31677747 -0.07219234 0.036238458 0.31196916 -0.46948195 -0.20896678 0.22747093 0.74688643
00000000: 8943 813e c3fa 13be 7f0e 6bbe 1957 f9bd
00000010: 2729 313e 26eb a5be f818 31be db58 4fbe
00000020: 30c6 a63f 1291 dd3e 1af6 13bf 7bce bbbe
00000030: 2e37 37be 4819 3ebf bfa6 d1bd 307b 923e
00000040: 44a1 24be 4aae 133c f87d 7e3f cf5d b3be
00000050: f5d0 86be 77f2 c1bd 03db a1be 112a f5bd
00000060: 8ffd 4fbd 98ed 18be ce59 1e3f ebfa 11bf
00000070: 4f5a a7bd 1734 023f 8e59 0bbe 186d 97be
00000080: e629 c33c da7e 343b 19a2 bebc 2d6c b6be
00000090: b776 4fbc bacf 593d b340 ffbd 5990 dc3e
000000a0: b498 39bf 31f3 0d40 a325 f0be ee65 a4bd
000000b0: 8fa0 4bbd 8aad 3cbe d1eb cbbe 4985 e7be
000000c0: 0574 90bd 5d84 d63e aaf5 c3be 9243 213f
000000d0: a6f5 1bbe e5ca 90bf ee07 d53b 57ef 083f
000000e0: 5aae c13e 45c0 023f 58ed 2a3f 9b6b 4abe
000000f0: a21b e1be 844c 2bbe 5feb f03f 61d8 3dbd
00000100: bba7 88be e6e4 973e c966 4ebf 4d41 d23f
00000110: 202e f73e 15c6 053e ca52 c9bc dc5e 163f
00000120: 55d1 cfbd db8a 85bf c522 5dbe e263 bc3f
00000130: eed6 f53e 8efd 43bf 21e6 a7bd fab7 8b3c
00000140: d3cd cdbe f3b8 843e bdbc 74be d533 edbc
00000150: 3073 423f 548f 2a3c 37d3 063e 3036 98be
00000160: b6c0 95bc 19dd 48be 65ff 33be dac2 4ebd
00000170: d3bb b3be 9dcf e5be 2170 8b3d 964c 93be
00000180: 1218 643f 09bf d63c b1ab 8d3f eb57 25be
00000190: be89 7f3e 7d13 9cbd c43e 2d3e e04c c63e
000001a0: ba63 85bc 2d0a 21be f65e 55bd 94ce 2d3e
000001b0: 69a9 bb3d 714f e83f 7e21 0bbf 3c11 053e
000001c0: 8d30 613e 96fa 6abe fdf5 df3d 3d9a 22c0
000001d0: fe10 72be fe5f 9e3f 0cde 8d3e 5910 48be
000001e0: 4a9f 5fbe d26a 543f 2da2 0a3f 70d2 a5bd
000001f0: 482e 90be a805 4f3e 87ff c6be 8d37 b7be
00000200: b745 b83e aba8 95be b22c 3a40 e8ec a63b
00000210: e626 e13e 7fbd 293c 3e4c 1bbd 1e13 c93e
00000220: f1e6 ff3c 459f ce3a b45d 783e d428 e8bd
00000230: 59fd 3abe b5bc ac3f 8e99 c7bd 0ad6 013f
00000240: 8106 b73d 28dd 9ebe 60fc 363e 991f a6bc
00000250: 6987 913d b86a a8be 35cb bc3c 9aa6 3ebe
00000260: 85f9 69be ed41 c4bc 2aff 9d3e ab7b 6cbf
00000270: 002d 413f 5697 4ebe 5735 79be 21fb 02be
00000280: f6fb 453f a9e5 c2bd 22b2 3a3f b616 da3e
00000290: caca 8abd dde0 b83d 7bd6 313d ac41 d63e
000002a0: ea59 ccbe 56fe 11bf 4364 47be 9705 6ebf
000002b0: a6c1 f2bd cd21 b0bd 247a 973e 85eb a4be
000002c0: a9fd a8be 8f02 97bc 7a5b 1dbe 3618 cd3c
000002d0: 3a3f 1bbe c047 2fbd 3a1d b0bd a0c3 8e3e
000002e0: ff59 9cbe 3335 1040 2dde d4bc ebdc 083e
000002f0: 14bf 4fbe 8677 3a3f 21bf ab3f 38c0 4a3e
00000300: 75f3 ad3c c8da 813f 8afb 53be 9966 51be
00000310: da3c c4be 24d4 8c3d 26e0 dfbd 5fa2 fb3d
00000320: 5d9d b3be 61a2 c63b 342e d3bd 21ab 0dbf
00000330: 1dc8 38be ec1a b63e 0fb6 113e 6195 423e
00000340: e66c e3bd a7a8 5cbe 4529 a93e 8b34 11bf
00000350: e3bd 00be 85b2 92be ebf2 cf3b 952e 223f
00000360: fa74 01be fb61 4d3e 0aab 8abd 625a 6abd
00000370: fe62 373f 2bf6 5cbe 34b5 e1bf 6c8f 403f
00000380: a57d c63d a06e 233e 7d50 babf 020b 16bf
00000390: c201 d5bd 331a bd3e 1242 a7be e96b ec3e
000003a0: 64a2 393e de9d 043f df5e 663f 7fc9 4abf
000003b0: 52b8 1a3e abdd 0abf 6ef7 1dbf 14f3 3ebc
000003c0: 3970 6d3e b945 1c3f d994 61be bb59 20be
000003d0: cf4c e4be 6549 85bc 08b3 7fbe ff4c 7a3b
000003e0: a830 a2be 94d9 93bd c76e 143d 6cba 9f3e
000003f0: f05f f0be 63fb 55be 24ee 683e f333 3f3f

std.constant10 i1 [128, 256] scale=0.0056507047 zero_point=0
0.113014095 0.13561691 0.050856344 0.0056507047 0.10736339 0.10736339 -0.011301409 0.045205638
0.090411276 -0.06780846 -0.06215775 0.113014095 -0.29948735 -0.07910986 -0.045205638 0.056507047
0.0056507047 0.13561691 0.10736339 -0.016952114 -0.15256903 0.08476057 0.016952114 0.20907608
0.14691833 0.15256903 -0.1186648 0.13561691 -0.0056507047 0.045205638 0.10171269 -0.0056507047
0.15256903 0.016952114 -0.10736339 0.03955493 0.028253524 -0.056507047 -0.12996621 -0.2373296
0.06780846 0.25993243 0.2373296 -0.022602819 -0.18647325 0.011301409 0.08476057 0.016952114
0.22037749 0.022602819 -0.14691833 0.20907608 -0.050856344 -0.17517185 0.0056507047 -0.18647325
-0.07345916 0.0056507047 0.20342538 -0.016952114 -0.090411276 0.03955493 0.29383665 -0.028253524
0.03955493 -0.011301409 -0.050856344 0.26558313 0.03390423 -0.07910986 -0.08476057 0.18082255
-0.2373296 -0.25993243 -0.016952114 -0.10736339 -0.09606198 0.07910986 -0.14126761 -0.113014095
0.050856344 0.011301409 0.16387044 -0.19777466 0.08476057 -0.028253524 -0.20907608 -0.028253524
0.0056507047 0.045205638 0.090411276 0.1243155 0.08476057 0.028253524 -0.050856344 -0.19777466
0.090411276 0.06780846 0.14126761 -0.03390423 -0.14691833 0.13561691 0.14691833 -0.1243155
0.07910986 0.0 0.0056507047 -0.14691833 0.2429803 0.011301409 -0.18647325 -0.06215775
-0.17517185 0.03955493 0.016952114 0.14126761 0.13561691 -0.18082255 0.113014095 -0.10736339
-0.16952114 0.0056507047 -0.113014095 0.0056507047 -0.028253524 -0.13561691 -0.0056507047 -0.13561691
-0.090411276 -0.0056507047 -0.011301409 -0.028253524 0.0 -0.07345916 -0.045205638 0.07345916
0.18082255 0.12996621 0.022602819 0.16952114 -0.12996621 -0.16387044 0.113014095 0.016952114
0.090411276 -0.0056507047 0.07345916 0.045205638 0.03955493 -0.14126761 0.0 -0.15821972
-0.16387044 -0.011301409 0.011301409 0.028253524 0.15256903 -0.016952114 0.0056507047 -0.16952114
0.056507047 -0.1186648 -0.016952114 0.0 0.050856344 0.022602819 -0.10171269 0.0056507047
-0.10171269 0.14126761 -0.03390423 0.17517185 -0.050856344 -0.18082255 -0.07345916 0.011301409
0.17517185 0.07910986 -0.113014095 0.045205638 -0.08476057 -0.016952114 -0.113014095 0.08476057
0.23167889 0.13561691 0.03390423 -0.17517185 0.03390423 0.0 -0.08476057 -0.16952114
0.16387044 0.045205638 -0.09606198 -0.03955493 0.19777466 -0.13561691 -0.0056507047 0.090411276
0.23167889 0.045205638 -0.12996621 0.06215775 -0.03955493 -0.12996621 0.028253524 0.06780846
0.06780846 -0.09606198 -0.045205638 0.12996621 -0.050856344 0.09606198 -0.028253524 -0.16387044
0.14691833 0.0056507047 -0.13561691 -0.1186648 -0.03955493 -0.33339158 -0.050856344 -0.12996621
0.18647325 0.028253524 0.07910986 -0.1186648 -0.022602819 0.19212396 0.0056507047 0.045205638
-0.23167889 0.19777466 0.06780846 -0.0056507047 0.12996621 0.16387044 0.07910986 -0.07910986
-0.06780846 -0.1243155 -0.056507047 0.12996621 0.090411276 0.016952114 -0.0056507047 0.13561691
0.08476057 0.07345916 0.113014095 -0.011301409 -0.248631 0.03955493 -0.14691833 0.09606198
00000000: 1418 0901 1313 fe08 10f4 f514 cbf2 f80a
00000010: 0118 13fd e50f 0325 1a1b eb18 ff08 12ff
00000020: 1b03 ed07 05f6 e9d6 0c2e 2afc df02 0f03
00000030: 2704 e625 f7e1 01df f301 24fd f007 34fb
00000040: 07fe f72f 06f2 f120 d6d2 fded ef0e e7ec
00000050: 0902 1ddd 0ffb dbfb 0108 1016 0f05 f7dd
00000060: 100c 19fa e618 1aea 0e00 01e6 2b02 dff5
00000070: e107 0319 18e0 14ed e201 ec01 fbe8 ffe8
00000080: f0ff fefb 00f3 f80d 2017 041e e9e3 1403
00000090: 10ff 0d08 07e7 00e4 e3fe 0205 1bfd 01e2
000000a0: 0aeb fd00 0904 ee01 ee19 fa1f f7e0 f302
000000b0: 1f0e ec08 f1fd ec0f 2918 06e1 0600 f1e2
000000c0: 1d08 eff9 23e8 ff10 2908 e90b f9e9 050c
000000d0: 0cef f817 f711 fbe3 1a01 e8eb f9c5 f7e9
000000e0: 2105 0eeb fc22 0108 d723 0cff 171d 0ef2
000000f0: f4ea f617 1003 ff18 0f0d 14fe d407 e611

std.constant19 f4 [768]
1.6052363 4.7538915 0.9280045 -0.028141003 0.5359041 -1.3170701 -0.119168915 -0.0060035335
-0.38342464 -0.35900587 -0.7365198 -1.8021219 -0.5287354 3.4804573 -0.46520603 0.43687093
0.6080862 -0.4374407 -0.47884116 0.30094856 0.79708374 4.3570395 -1.2288395 -0.7240387
0.05051496 2.3409405 -1.4116943 0.6540734 0.40689293 -0.13453546 -0.045658186 -0.55090535
1.5707737 -1.7005726 -0.47286868 -0.72077185 -0.19414857 2.0520625 -0.17960252 -0.11653079
-1.1219505 -0.880982 -0.2458327 0.41821015 -0.7730406 -0.19558167 0.8193459 -0.036505163
0.03434705 -0.085903324 0.47630486 0.5393856 -0.040826563 1.6385996 -0.7002394 1.0952924
-0.20308864 -1.0425086 0.4485099 2.5470355 -0.39052257 -0.3324124 -0.077016436 -0.40731633
-0.31528977 1.3733147 0.56499493 0.7108367 -0.52770245 -0.05921015 -0.59437746 0.21859331
0.16511433 0.6345732 1.0255562 -0.13135055 0.5365537 -1.097069 -0.18659881 -0.8561911
0.021071468 -0.6255855 0.32823542 0.14966491 -2.0328627 1.9260662 -1.5164274 2.0200012
0.041140016 0.45873195 0.06822513 0.025510447 0.9260909 -0.16243744 -1.5828146 0.110218376
-0.46345624 -0.12740438 -0.7808712 2.2931762 -3.1320832 -0.15071602 -0.22949632 0.51545304
-0.15009946 -0.042653322 -0.39350244 -0.23432176 -1.0367061 -0.44633472 -0.09280307 -0.06289607
-0.7607992 2.6722262 -0.11739149 -0.44256505 -0.042207003 -0.37976658 0.79608274 -1.9932771
0.3789308 -0.4927215 -0.56608695 1.2320371 0.24842195 -0.3033209 -0.0018983711 -0.12051407
0.09694625 -0.1400339 -0.44836935 2.0033882 -1.4405802 -0.054741334 1.9180533 0.71873516
0.55270654 -0.1671667 -0.118250005 -0.27475736 0.40805474 -0.36401168 -0.044836573 0.056141045
0.4582589 -0.19062716 4.665446 0.5904378 2.7603207 2.258502 0.27753592 0.4929329
-0.11452195 -0.18190838 -0.037136286 1.6731837 3.5293045 1.1021024 -0.3326468 -0.4015077
0.5640123 -0.08946494 -0.15971611 -0.34766132 -0.37938184 -0.12145408 0.14573024 -0.03976309
1.3372838 -0.122134514 -0.28494328 -0.40481693 0.10763023 1.3764462 -1.3931798 -0.2905858
0.099472016 0.6256738 -0.45528334 -0.35817444 2.4142094 1.1050543 -0.31727296 -1.0878696
-0.13010132 -0.1230288 -0.16907296 -1.2894912 0.33502117 1.7567006 -0.1577671 0.73665226
0.16576122 -1.1132567 -0.31788963 -0.519491 -0.6346499 -0.10935556 -0.43672746 2.3245652
-0.101523705 -0.14066352 0.0031445296 5.7836013 -2.0453246 -0.47901866 1.0814922 0.23901586
-0.07103535 -0.75863457 -0.06542285 5.144859 -0.09825585 -0.18765251 -0.06694148 -0.2293303
0.19706154 0.5853428 1.5723292 0.8241008 -0.24140401 3.4321833 -0.22223277 0.3892327
-0.1313143 2.5753362 -0.22546272 -0.020924637 2.149669 0.0025793854 -0.37717777 -0.5861378
0.4384518 -1.2866871 -0.50046456 0.11039902 2.8290138 0.32352224 0.5865655 -0.3269406
-0.45402762 -0.14294419 -0.48749024 1.0094267 3.8905609 -0.35690823 1.3424402 -0.09198859
1.3279353 -0.042821426 0.54173684 0.017621398 -1.1006428 -0.17756833 0.59171826 -0.04719849
00000000: 6278 cd3f e11f 9840 b491 6d3f f687 e6bc
00000010: 0331 093f c195 a8bf d50e f4bd 4ab9 c4bb
00000020: 3c50 c4be 9ecf b7be 908c 3cbf eeab e6bf
00000030: 345b 07bf d0bf 5e40 7c2f eebe 8cad df3e
00000040: 8aab 1b3f 3af8 dfbe ab2a f5be ee15 9a3e
00000050: ae0d 4c3f de6c 8b40 9d4a 9dbf 9a5a 39bf
00000060: c6e8 4e3d f8d1 1540 66b2 b4bf 5b71 273f
00000070: 4554 d03e aac3 09be 1404 3bbd 2208 0dbf
00000080: 1d0f c93f 5dac d9bf d81b f2be 8184 38bf
00000090: e2ce 46be fe54 0340 b9e9 37be b2a7 eebd
000000a0: 139c 8fbf 0988 61bf 91bb 7bbe a41f d63e
000000b0: fde5 45bf 9046 48be a7c0 513f 7086 15bd
000000c0: 7eaf 0c3d 15ee afbd 3bde f33e 2d15 0a3f
000000d0: c139 27bd a2bd d13f e442 33bf 8b32 8c3f
000000e0: 78f6 4fbe ec70 85bf 17a3 e53e a102 2340
000000f0: 93f2 c7be f531 aabe cbba 9dbd c48b d0be
00000100: a96d a1be c7c8 af3f 82a3 103f 65f9 353f
00000110: 8217 07bf 5886 72bd 1f29 18bf edd6 5f3e
00000120: bb13 293e 6473 223f 6d45 833f c280 06be
00000130: 955b 093f c26c 8cbf c213 3fbe 572f 5bbf
00000140: 129e ac3c 5f26 20bf 790e a83e c241 193e
00000150: 6c1a 02c0 5689 f63f 4b1a c2bf b347 0140
00000160: 6f82 283d eade ea3e 9eb9 8b3d 49fb d03c
00000170: 4b14 6d3f 0056 26be ab99 cabf 2cba e13d
00000180: 234a edbe 4b76 02be 2de7 47bf 66c3 1240
00000190: 0d74 48c0 4d55 1abe 1501 6bbe bbf4 033f
000001a0: acb3 19be 40b5 2ebd 2779 c9be 0bf2 6fbe
000001b0: c9b2 84bf fc85 e4be 890f bebd a8cf 80bd
000001c0: bdc3 42bf c105 2b40 f36a f0bd e397 e2be
000001d0: 40e1 2cbd c470 c2be 14cc 4b3f b423 ffbf
000001e0: 3803 c23e fe45 fcbe 13eb 10bf 64b3 9d3f
000001f0: 5362 7e3e e14c 9bbe c4d2 f8ba 15d0 f6bd
00000200: c18b c63d 0c65 0fbe ab90 e5be 8337 0040
00000210: ef64 b8bf 7338 60bd c582 f53f 07ff 373f
00000220: 2d7e 0d3f bf2d 2bbe 0f2d f2bd ffac 8cbe
00000230: 8dec d03e bd5f babe 8ea6 37bd 27f4 653d
00000240: e9a0 ea3e c433 43be 554b 9540 ef26 173f
00000250: 18a9 3040 4c8b 1040 3019 8e3e b361 fc3e
00000260: 7c8a eabd 3146 3abe 381c 18bd e22a d63f
00000270: 20e0 6140 b111 8d3f ae50 aabe 6b92 cdbe
00000280: 1c63 103f 6539 b7bd 9f8c 23be aa00 b2be
00000290: 563e c2be ebbc f8bd 4f3a 153e 9fde 22bd
000002a0: 1e2c ab3f a921 fabd 16e4 91be 2a44 cfbe
000002b0: 3d6d dc3d 642f b03f b753 b2bf a9c7 94be
000002c0: fcb7 cb3d 282c 203f e61a e9be a462 b7be
000002d0: 6882 1a40 6b72 8d3f 9a71 a2be 503f 8bbf
000002e0: 4839 05be 86f6 fbbd 7621 2dbe 0c0e a5bf
000002f0: e587 ab3e 91db e03f b38d 21be 3e95 3c3f
00000300: 4fbd 293e 327f 8ebf 6ec2 a2be 5dfd 04bf
00000310: 6a78 22bf cff5 dfbd be9a dfbe adc5 1440
00000320: a9eb cfbd 190a 10be 7414 4e3b 4313 b940
00000330: 99e6 02c0 ef41 f5be 566e 8a3f 93c0 743e
00000340: fb7a 91bd e035 42bf 6afc 85bd afa2 a440
00000350: 5d3a c9bd fb27 40be 9d18 89bd 90d5 6abe
00000360: 80ca 493e 07d9 153f 1542 c93f 45f8 523f
00000370: 9d32 77be e4a8 5b40 fd90 63be 8249 c73e
00000380: 4177 06be 4fd2 2440 b3df 66be 256a abbc
00000390: 2d94 0940 e80a 293b 721d c1be 200d 16bf
000003a0: c17c e03e 2ab2 a4bf 721e 00bf e218 e23d
000003b0: 900e 3540 b5a4 a53e 2829 163f c264 a7be
000003c0: 4f76 e8be f65f 12be 5298 f9be e534 813f
000003d0: f3fe 7840 adbc b6be 15d5 ab3f 8464 bcbd
000003e0: c9f9 a93f 8565 2fbd 44af 0a3f c05a 903c
000003f0: dde1 8cbf 79d4 35be d97a 173f 3453 41bd

std.constant20 f4 [768]
1.6052363 4.7538915 0.9280045 -0.028141003 0.5359041 -1.3170701 -0.119168915 -0.0060035335
-0.38342464 -0.35900587 -0.7365198 -1.8021219 -0.5287354 3.4804573 -0.46520603 0.43687093
0.6080862 -0.4374407 -0.47884116 0.30094856 0.79708374 4.3570395 -1.2288395 -0.7240387
0.05051496 2.3409405 -1.4116943 0.6540734 0.40689293 -0.13453546 -0.045658186 -0.55090535
1.5707737 -1.7005726 -0.47286868 -0.72077185 -0.19414857 2.0520625 -0.17960252 -0.11653079
-1.1219505 -0.880982 -0.2458327 0.41821015 -0.7730406 -0.19558167 0.8193459 -0.036505163
0.03434705 -0.085903324 0.47630486 0.5393856 -0.040826563 1.6385996 -0.7002394 1.0952924
-0.20308864 -1.0425086 0.4485099 2.5470355 -0.39052257 -0.3324124 -0.077016436 -0.40731633
-0.31528977 1.3733147 0.56499493 0.7108367 -0.52770245 -0.05921015 -0.59437746 0.21859331
0.16511433 0.6345732 1.0255562 -0.13135055 0.5365537 -1.097069 -0.18659881 -0.8561911
0.021071468 -0.6255855 0.32823542 0.14966491 -2.0328627 1.9260662 -1.5164274 2.0200012
0.041140016 0.45873195 0.06822513 0.025510447 0.9260909 -0.16243744 -1.5828146 0.110218376
-0.46345624 -0.12740438 -0.7808712 2.2931762 -3.1320832 -0.15071602 -0.22949632 0.51545304
-0.15009946 -0.042653322 -0.39350244 -0.23432176 -1.0367061 -0.44633472 -0.09280307 -0.06289607
-0.7607992 2.6722262 -0.11739149 -0.44256505 -0.042207003 -0.37976658 0.79608274 -1.9932771
0.3789308 -0.4927215 -0.56608695 1.2320371 0.24842195 -0.3033209 -0.0018983711 -0.12051407
0.09694625 -0.1400339 -0.44836935 2.0033882 -1.4405802 -0.054741334 1.9180533 0.71873516
0.55270654 -0.1671667 -0.118250005 -0.27475736 0.40805474 -0.36401168 -0.044836573 0.056141045
0.4582589 -0.19062716 4.665446 0.5904378 2.7603207 2.258502 0.27753592 0.4929329
-0.11452195 -0.18190838 -0.037136286 1.6731837 3.5293045 1.1021024 -0.3326468 -0.4015077
0.5640123 -0.08946494 -0.15971611 -0.34766132 -0.37938184 -0.12145408 0.14573024 -0.03976309
1.3372838 -0.122134514 -0.28494328 -0.40481693 0.10763023 1.3764462 -1.3931798 -0.2905858
0.099472016 0.6256738 -0.45528334 -0.35817444 2.4142094 1.1050543 -0.31727296 -1.0878696
-0.13010132 -0.1230288 -0.16907296 -1.2894912 0.33502117 1.7567006 -0.1577671 0.73665226
0.16576122 -1.1132567 -0.31788963 -0.519491 -0.6346499 -0.10935556 -0.43672746 2.3245652
-0.101523705 -0.14066352 0.0031445296 5.7836013 -2.0453246 -0.47901866 1.0814922 0.23901586
-0.07103535 -0.75863457 -0.06542285 5.144859 -0.09825585 -0.18765251 -0.06694148 -0.2293303
0.19706154 0.5853428 1.5723292 0.8241008 -0.24140401 3.4321833 -0.22223277 0.3892327
-0.1313143 2.5753362 -0.22546272 -0.020924637 2.149669 0.0025793854 -0.37717777 -0.5861378
0.4384518 -1.2866871 -0.50046456 0.11039902 2.8290138 0.32352224 0.5865655 -0.3269406
-0.45402762 -0.14294419 -0.48749024 1.0094267 3.8905609 -0.35690823 1.3424402 -0.09198859
1.3279353 -0.042821426 0.54173684 0.017621398 -1.1006428 -0.17756833 0.59171826 -0.04719849
00000000: 6278 cd3f e11f 9840 b491 6d3f f687 e6bc
00000010: 0331 093f c195 a8bf d50e f4bd 4ab9 c4bb
00000020: 3c50 c4be 9ecf b7be 908c 3cbf eeab e6bf
00000030: 345b 07bf d0bf 5e40 7c2f eebe 8cad df3e
00000040: 8aab 1b3f 3af8 dfbe ab2a f5be ee15 9a3e
00000050: ae0d 4c3f de6c 8b40 9d4a 9dbf 9a5a 39bf
00000060: c6e8 4e3d f8d1 1540 66b2 b4bf 5b71 273f
00000070: 4554 d03e aac3 09be 1404 3bbd 2208 0dbf
00000080: 1d0f c93f 5dac d9bf d81b f2be 8184 38bf
00000090: e2ce 46be fe54 0340 b9e9 37be b2a7 eebd
000000a0: 139c 8fbf 0988 61bf 91bb 7bbe a41f d63e
000000b0: fde5 45bf 9046 48be a7c0 513f 7086 15bd
000000c0: 7eaf 0c3d 15ee afbd 3bde f33e 2d15 0a3f
000000d0: c139 27bd a2bd d13f e442 33bf 8b32 8c3f
000000e0: 78f6 4fbe ec70 85bf 17a3 e53e a102 2340
000000f0: 93f2 c7be f531 aabe cbba 9dbd c48b d0be
00000100: a96d a1be c7c8 af3f 82a3 103f 65f9 353f
00000110: 8217 07bf 5886 72bd 1f29 18bf edd6 5f3e
00000120: bb13 293e 6473 223f 6d45 833f c280 06be
00000130: 955b 093f c26c 8cbf c213 3fbe 572f 5bbf
00000140: 129e ac3c 5f26 20bf 790e a83e c241 193e
00000150: 6c1a 02c0 5689 f63f 4b1a c2bf b347 0140
00000160: 6f82 283d eade ea3e 9eb9 8b3d 49fb d03c
00000170: 4b14 6d3f 0056 26be ab99 cabf 2cba e13d
00000180: 234a edbe 4b76 02be 2de7 47bf 66c3 1240
00000190: 0d74 48c0 4d55 1abe 1501 6bbe bbf4 033f
000001a0: acb3 19be 40b5 2ebd 2779 c9be 0bf2 6fbe
000001b0: c9b2 84bf fc85 e4be 890f bebd a8cf 80bd
000001c0: bdc3 42bf c105 2b40 f36a f0bd e397 e2be
000001d0: 40e1 2cbd c470 c2be 14cc 4b3f b423 ffbf
000001e0: 3803 c23e fe45 fcbe 13eb 10bf 64b3 9d3f
000001f0: 5362 7e3e e14c 9bbe c4d2 f8ba 15d0 f6bd
00000200: c18b c63d 0c65 0fbe ab90 e5be 8337 0040
00000210: ef64 b8bf 7338 60bd c582 f53f 07ff 373f
00000220: 2d7e 0d3f bf2d 2bbe 0f2d f2bd ffac 8cbe
00000230: 8dec d03e bd5f babe 8ea6 37bd 27f4 653d
00000240: e9a0 ea3e c433 43be 554b 9540 ef26 173f
00000250: 18a9 3040 4c8b 1040 3019 8e3e b361 fc3e
00000260: 7c8a eabd 3146 3abe 381c 18bd e22a d63f
00000270: 20e0 6140 b111 8d3f ae50 aabe 6b92 cdbe
00000280: 1c63 103f 6539 b7bd 9f8c 23be aa00 b2be
00000290: 563e c2be ebbc f8bd 4f3a 153e 9fde 22bd
000002a0: 1e2c ab3f a921 fabd 16e4 91be 2a44 cfbe
000002b0: 3d6d dc3d 642f b03f b753 b2bf a9c7 94be
000002c0: fcb7 cb3d 282c 203f e61a e9be a462 b7be
000002d0: 6882 1a40 6b72 8d3f 9a71 a2be 503f 8bbf
000002e0: 4839 05be 86f6 fbbd 7621 2dbe 0c0e a5bf
000002f0: e587 ab3e 91db e03f b38d 21be 3e95 3c3f
00000300: 4fbd 293e 327f 8ebf 6ec2 a2be 5dfd 04bf
00000310: 6a78 22bf cff5 dfbd be9a dfbe adc5 1440
00000320: a9eb cfbd 190a 10be 7414 4e3b 4313 b940
00000330: 99e6 02c0 ef41 f5be 566e 8a3f 93c0 743e
00000340: fb7a 91bd e035 42bf 6afc 85bd afa2 a440
00000350: 5d3a c9bd fb27 40be 9d18 89bd 90d5 6abe
00000360: 80ca 493e 07d9 153f 1542 c93f 45f8 523f
00000370: 9d32 77be e4a8 5b40 fd90 63be 8249 c73e
00000380: 4177 06be 4fd2 2440 b3df 66be 256a abbc
00000390: 2d94 0940 e80a 293b 721d c1be 200d 16bf
000003a0: c17c e03e 2ab2 a4bf 721e 00bf e218 e23d
000003b0: 900e 3540 b5a4 a53e 2829 163f c264 a7be
000003c0: 4f76 e8be f65f 12be 5298 f9be e534 813f
000003d0: f3fe 7840 adbc b6be 15d5 ab3f 8464 bcbd
000003e0: c9f9 a93f 8565 2fbd 44af 0a3f c05a 903c
000003f0: dde1 8cbf 79d4 35be d97a 173f 3453 41bd

while/MatMul_1 i1 [768, 256] scale=0.0106288055 zero_point=0
0.042515222 0.0106288055 -0.07440164 0.0106288055 -0.085030444 -0.0106288055 -0.053144027 -0.14880328
-0.021257611 -0.07440164 -0.021257611 -0.031886417 -0.031886417 -0.031886417 0.0106288055 0.042515222
-0.042515222 -0.07440164 0.14880328 0.031886417 -0.021257611 -0.021257611 0.0 0.0106288055
-0.085030444 0.0106288055 0.0 0.031886417 0.085030444 -0.063772835 -0.031886417 0.11691686
-0.0106288055 0.042515222 -0.063772835 0.053144027 -0.053144027 0.042515222 -0.11691686 -0.031886417
0.031886417 -0.042515222 -0.063772835 0.07440164 -0.063772835 0.031886417 0.085030444 0.085030444
0.053144027 0.07440164 -0.053144027 -0.11691686 -0.042515222 -0.031886417 -0.0106288055 -0.07440164
-0.053144027 0.021257611 -0.063772835 0.0 -0.09565925 -0.13817447 -0.021257611 0.021257611
-0.031886417 -0.042515222 -0.021257611 0.031886417 0.0 -0.085030444 -0.042515222 -0.11691686
-0.12754567 -0.021257611 0.0106288055 -0.10628805 -0.053144027 0.021257611 0.053144027 0.053144027
0.021257611 -0.0106288055 0.085030444 0.085030444 -0.042515222 -0.031886417 0.0106288055 -0.053144027
0.063772835 0.063772835 0.031886417 -0.085030444 -0.12754567 -0.063772835 0.063772835 0.053144027
-0.042515222 -0.0106288055 0.031886417 -0.063772835 0.11691686 -0.09565925 -0.07440164 0.063772835
0.09565925 0.085030444 0.031886417 0.053144027 0.0 0.0 -0.042515222 0.063772835
-0.031886417 0.053144027 0.07440164 0.07440164 -0.11691686 -0.031886417 0.11691686 -0.0106288055
-0.15943208 -0.0106288055 0.0 -0.021257611 -0.12754567 -0.053144027 0.11691686 0.10628805
-0.0106288055 0.031886417 0.053144027 -0.031886417 -0.021257611 -0.07440164 -0.0106288055 0.11691686
0.031886417 0.09565925 0.042515222 -0.021257611 -0.031886417 -0.042515222 0.042515222 -0.1913185
0.031886417 -0.09565925 -0.042515222 -0.021257611 0.031886417 -0.042515222 0.063772835 0.053144027
-0.07440164 -0.13817447 0.07440164 0.085030444 0.021257611 0.053144027 -0.07440164 0.063772835
-0.042515222 -0.07440164 0.14880328 -0.085030444 -0.07440164 0.0 0.0 0.12754567
-0.031886417 -0.053144027 0.021257611 -0.021257611 0.042515222 0.031886417 0.063772835 0.10628805
0.053144027 -0.11691686 -0.0106288055 0.10628805 0.063772835 0.021257611 -0.0106288055 0.09565925
-0.063772835 0.0106288055 -0.0106288055 0.021257611 -0.053144027 -0.042515222 -0.053144027 0.07440164
0.042515222 -0.063772835 -0.0106288055 -0.11691686 -0.021257611 -0.11691686 -0.14880328 -0.0106288055
0.063772835 -0.13817447 -0.09565925 0.042515222 0.063772835 -0.0106288055 0.021257611 -0.053144027
-0.11691686 0.042515222 0.042515222 0.09565925 0.053144027 0.0106288055 -0.085030444 -0.031886417
0.0106288055 0.12754567 -0.053144027 -0.053144027 -0.085030444 -0.021257611 -0.053144027 -0.021257611
0.07440164 0.042515222 0.0106288055 -0.063772835 -0.07440164 -0.10628805 -0.053144027 0.063772835
-0.085030444 0.0 0.07440164 -0.031886417 -0.031886417 0.085030444 0.031886417 -0.021257611
0.07440164 0.042515222 -0.053144027 -0.053144027 0.031886417 0.053144027 0.10628805 -0.021257611
-0.021257611 0.085030444 -0.0106288055 -0.063772835 -0.10628805 0.0106288055 0.0 -0.07440164
00000000: 0401 f901 f8ff fbf2 fef9 fefd fdfd 0104
00000010: fcf9 0e03 fefe 0001 f801 0003 08fa fd0b
00000020: ff04 fa05 fb04 f5fd 03fc fa07 fa03 0808
00000030: 0507 fbf5 fcfd fff9 fb02 fa00 f7f3 fe02
00000040: fdfc fe03 00f8 fcf5 f4fe 01f6 fb02 0505
00000050: 02ff 0808 fcfd 01fb 0606 03f8 f4fa 0605
00000060: fcff 03fa 0bf7 f906 0908 0305 0000 fc06
00000070: fd05 0707 f5fd 0bff f1ff 00fe f4fb 0b0a
00000080: ff03 05fd fef9 ff0b 0309 04fe fdfc 04ee
00000090: 03f7 fcfe 03fc 0605 f9f3 0708 0205 f906
000000a0: fcf9 0ef8 f900 000c fdfb 02fe 0403 060a
000000b0: 05f5 ff0a 0602 ff09 fa01 ff02 fbfc fb07
000000c0: 04fa fff5 fef5 f2ff 06f3 f704 06ff 02fb
000000d0: f504 0409 0501 f8fd 010c fbfb f8fe fbfe
000000e0: 0704 01fa f9f6 fb06 f800 07fd fd08 03fe
000000f0: 0704 fbfb 0305 0afe fe08 fffa f601 00f9
