tensorflow/frozen_models/tiny/1605672336/model.tflite (tflite, 31728 bytes, 11 tensors)

unknown_0 f4 [8]
00000000: c249 22b5 68f5 6436 1456 87b3 38ce 1334
00000010: 8c5f 8c33 d721 92b5 7d02 fdb5 5932 8cb6
-6.0457035e-07 3.4117493e-06 -6.302085e-08 1.3765464e-07 6.536638e-08 -1.0887696e-06 -1.8850693e-06 -4.1781864e-06

unknown_12 f4 [64]
00000000: f238 0c41 a442 a840 b51f 3340 07d7 1c40
00000010: 7b6e f93e 7e94 7e40 52d5 833f ed7d b940
00000020: e7d6 8740 13a8 4fbf 4c28 0c40 04bd f940
00000030: 46af 8f40 9554 1141 8a8e 3040 073f c140
00000040: 93ed 8840 cf8c 1b3f b6c0 dc3f cc7e e93f
00000050: f802 09bf d4a2 f73f 1e4f 1640 81fa 13c0
00000060: 016f df3e d45c f13f 41c2 c340 91f2 4a40
00000070: 2eb7 0dc0 1b33 a540 d4a2 6940 cc7d c040
00000080: 2575 7940 f72d 7f40 7a2f b83f fcc2 6240
00000090: 62ef cb40 f0d6 d7bf a12e ea3f 5a31 a640
000000a0: ced9 4b40 de00 9440 aec7 bb3f a30a ad40
000000b0: 5377 3b40 4304 1740 e6a6 9740 a169 ef40
000000c0: 6271 dd40 fd4a 5740 a3a2 8840 496a 1640
000000d0: 6eda 5140 cf3c 6840 c11b 8740 8e3e 6740
000000e0: 7072 2940 e02c 4a40 7ac6 6340 902f 2b40
000000f0: 8a7d 2040 3a56 2540 174b 14c0 de23 5e40
8.763903 5.258135 2.7988102 2.4506242 0.48717102 3.9778132 1.0299475 5.796622
4.244983 -0.81115836 2.1899595 7.804323 4.4901457 9.08315 2.7587 6.038944
4.2790008 0.6076173 1.7246311 1.824182 -0.53520155 1.9346566 2.348579 -2.3121645
0.43639377 1.8856454 6.1174626 3.171055 -2.2143054 5.1624885 3.6505632 6.015356
3.897775 3.9871805 1.4389489 3.543151 6.3729715 -1.6862469 1.829548 5.1935244
3.1851687 4.625106 1.4670312 5.4075484 2.929158 2.359635 4.7391233 7.481644
6.9200907 3.363952 4.269853 2.3502371 3.278957 3.6287115 4.222138 3.613193
2.6476097 3.158989 3.558989 2.674778 2.5076623 2.5833879 -2.3170831 3.4709392

unknown_6 f4 [8]
00000000: e7c8 1235 4940 22b7 dedf 7d37 e2c7 7136
00000010: 60f9 1435 e8a2 0036 61c9 b935 a5e2 7537
5.468159e-07 -9.67092e-06 1.5132098e-05 3.6028146e-06 5.5497185e-07 1.916831e-06 1.3842183e-06 1.4655908e-05

sequential_1/batch_normalization/batchnorm/mul;StatefulPartitionedCall/sequential_1/batch_normalization/batchnorm/mul f4 [8]
00000000: 14d4 91bc b48f d73e dc31 e73c ee5c 9e3c
00000010: c17a d8bc 0beb e23e 409b 003d 6bd2 063f
-0.017801322 0.42101824 0.028222017 0.019331422 -0.026425721 0.4431995 0.031398058 0.5266482

sequential_1/batch_normalization/batchnorm/sub;StatefulPartitionedCall/sequential_1/batch_normalization/batchnorm/sub f4 [8]
00000000: 7e32 b23f 7c09 c53e dae8 17bf 906a 37bf
00000010: 74b5 2a3f a523 46c0 bc43 ffbf 00c5 0640
1.3921659 0.38483799 -0.5933968 -0.71646976 0.66683125 -3.0959256 -1.9942546 2.105774

sequential_1/batch_normalization_1/batchnorm/sub;StatefulPartitionedCall/sequential_1/batch_normalization_1/batchnorm/sub f4 [8]
00000000: 54bf e43d 96a3 1e3e ccb1 e0be 4e58 74be
00000010: c8ac daba 1fa1 c3bb 7a38 32be 9ab2 1dbf
0.111693054 0.1549209 -0.43885648 -0.2386181 -0.0016683573 -0.005970135 -0.17404357 -0.6160065

sequential_1/dense/MatMul;StatefulPartitionedCall/sequential_1/dense/MatMul i1 [64, 232] scale=0.010778021 zero_point=0
00000000: 11f9 0010 f8f5 1ae7 0402 1d13 e601 1512
00000010: 02cb 1e0b de19 0dfe f1c0 2b2d db0c ebe8
00000020: 0202 2944 ebf8 100c 36eb 14ff eb38 131e
00000030: 0cbd 1f0b d923 f8e4 e7cf 2841 dae6 fddd
00000040: 06fe fe05 ee0e f4f2 05ff 0c1d f004 0f01
00000050: 04ef 0903 ed03 09f9 fceb 0606 eb05 def2
00000060: f406 0f1e fdd6 1f01 0bef e7d7 0025 dbf5
00000070: f616 f91e fef0 f3e2 fd12 f7fd f9f3 1407
00000080: 0004 e3e0 0313 e9fc fe1f 0315 07e9 0605
00000090: 07fe efd8 ff09 fb0a ed02 fafd 13fa e7f2
000000a0: fe21 0002 0af4 0811 03f0 e5cf 0d09 04ed
000000b0: e215 0826 0ff0 e704 0c27 eddd 13ef 390b
000000c0: e3fd fcff 0cfd dd08 ed3a 07ff 2ad6 202a
000000d0: ed18 fdd0 2bf0 1423 fdff 00ea 1d26 c00b
000000e0: 090c e4d7 1cd5 4a05 f6f9 11fb 0f0f 0209
000000f0: 02df 271f e617 00ff 0fea 130f e527 fb16
0.18322636 -0.075446144 0.0 0.17244834 -0.08622417 -0.11855823 0.28022856 -0.26945052
0.043112084 0.021556042 0.3125626 0.2047824 -0.28022856 0.010778021 0.22633845 0.19400439
0.021556042 -0.5712351 0.32334062 0.11855823 -0.36645272 0.26945052 0.14011428 -0.021556042
-0.16167031 -0.68979335 0.4634549 0.48501095 -0.39878678 0.12933625 -0.22633845 -0.2586725
0.021556042 0.021556042 0.44189885 0.73290545 -0.22633845 -0.08622417 0.17244834 0.12933625
0.58201313 -0.22633845 0.21556042 -0.010778021 -0.22633845 0.60356915 0.2047824 0.32334062
0.12933625 -0.72212744 0.33411866 0.11855823 -0.42034283 0.37723073 -0.08622417 -0.30178457
-0.26945052 -0.528123 0.43112084 0.70057136 -0.4095648 -0.28022856 -0.032334063 -0.37723073
0.06466813 -0.021556042 -0.021556042 0.053890105 -0.19400439 0.15089229 -0.12933625 -0.15089229
0.053890105 -0.010778021 0.12933625 0.3125626 -0.17244834 0.043112084 0.16167031 0.010778021
0.043112084 -0.18322636 0.09700219 0.032334063 -0.2047824 0.032334063 0.09700219 -0.075446144
-0.043112084 -0.22633845 0.06466813 0.06466813 -0.22633845 0.053890105 -0.36645272 -0.15089229
-0.12933625 0.06466813 0.16167031 0.32334062 -0.032334063 -0.4526769 0.33411866 0.010778021
0.11855823 -0.18322636 -0.26945052 -0.44189885 0.0 0.39878678 -0.39878678 -0.11855823
-0.10778021 0.23711646 -0.075446144 0.32334062 -0.021556042 -0.17244834 -0.14011428 -0.32334062
-0.032334063 0.19400439 -0.09700219 -0.032334063 -0.075446144 -0.14011428 0.21556042 0.075446144
0.0 0.043112084 -0.3125626 -0.34489667 0.032334063 0.2047824 -0.24789448 -0.043112084
-0.021556042 0.33411866 0.032334063 0.22633845 0.075446144 -0.24789448 0.06466813 0.053890105
0.075446144 -0.021556042 -0.18322636 -0.43112084 -0.010778021 0.09700219 -0.053890105 0.10778021
-0.2047824 0.021556042 -0.06466813 -0.032334063 0.2047824 -0.06466813 -0.26945052 -0.15089229
-0.021556042 0.35567468 0.0 0.021556042 0.10778021 -0.12933625 0.08622417 0.18322636
0.032334063 -0.17244834 -0.29100657 -0.528123 0.14011428 0.09700219 0.043112084 -0.2047824
-0.32334062 0.22633845 0.08622417 0.4095648 0.16167031 -0.17244834 -0.26945052 0.043112084
0.12933625 0.42034283 -0.2047824 -0.37723073 0.2047824 -0.18322636 0.6143472 0.11855823
-0.3125626 -0.032334063 -0.043112084 -0.010778021 0.12933625 -0.032334063 -0.37723073 0.08622417
-0.2047824 0.6251252 0.075446144 -0.010778021 0.4526769 -0.4526769 0.34489667 0.4526769
-0.2047824 0.2586725 -0.032334063 -0.517345 0.4634549 -0.17244834 0.21556042 0.37723073
-0.032334063 -0.010778021 0.0 -0.23711646 0.3125626 0.4095648 -0.68979335 0.11855823
0.09700219 0.12933625 -0.30178457 -0.44189885 0.30178457 -0.4634549 0.79757357 0.053890105
-0.10778021 -0.075446144 0.18322636 -0.053890105 0.16167031 0.16167031 0.021556042 0.09700219
0.021556042 -0.35567468 0.42034283 0.33411866 -0.28022856 0.24789448 0.0 -0.010778021
0.16167031 -0.23711646 0.2047824 0.16167031 -0.29100657 0.42034283 -0.053890105 0.23711646

sequential_1/batch_normalization_1/batchnorm/mul;StatefulPartitionedCall/sequential_1/batch_normalization_1/batchnorm/mul f4 [8]
00000000: 2a09 db3d 0a8b 133e 2bad 733e 0e78 093e
00000010: bbf1 cd3d 455a a23d 2a58 cf3d 88a9 9c3e
0.10695107 0.14408508 0.23796527 0.13424703 0.10055872 0.07927374 0.10124238 0.30598092

sequential_1/conv1d/conv1d;StatefulPartitionedCall/sequential_1/conv1d/conv1d i1 [8, 1, 10, 121] scale=0.009673015 zero_point=0
00000000: 182a 1d1e 1e15 271c 1016 101a 1210 141a
00000010: 1317 0e14 1711 1c12 1818 1717 1d14 2010
00000020: 191e 221e 1413 1822 1419 1f1a 1a1c 1816
00000030: 211a 1d1c 2511 1811 1c15 1315 1b16 1417
00000040: 171a 171b 1b19 0b0b 141f 171b 121b 1b1e
00000050: 1c12 1b17 2716 111f 2322 1219 191c 1e1f
00000060: 1818 0c14 1f17 1a1b 1a1b 1619 1915 2015
00000070: 1214 1218 1c17 243a 29fa fbfd 02fd f8fc
00000080: 0b04 030b 0108 08fe fe04 0209 07fc 0401
00000090: fe04 0905 0309 f80a 0a03 0505 0700 0502
000000a0: 0006 0008 0000 fefb fe0e fcff 03ff 0100
000000b0: fa0c 04ff fdfe 0407 04fd 02fe fc0d 0507
000000c0: 00fc 060a f905 ff04 0004 00f9 fd01 0202
000000d0: 0506 0403 fbff fafc 05fe faff 0609 0500
000000e0: 05fb 00ff 030b ff07 08ff fffe 0500 00ff
000000f0: 0f0a edf0 fa02 08f8 040c 06f9 0303 0205
0.23215237 0.40626663 0.28051743 0.29019046 0.29019046 0.20313331 0.3772476 0.27084443
0.15476824 0.21280633 0.15476824 0.2514984 0.17411427 0.15476824 0.1934603 0.2514984
0.18378729 0.22247934 0.13542221 0.1934603 0.22247934 0.16444126 0.27084443 0.17411427
0.23215237 0.23215237 0.22247934 0.22247934 0.28051743 0.1934603 0.3095365 0.15476824
0.24182539 0.29019046 0.32888252 0.29019046 0.1934603 0.18378729 0.23215237 0.32888252
0.1934603 0.24182539 0.29986346 0.2514984 0.2514984 0.27084443 0.23215237 0.21280633
0.31920952 0.2514984 0.28051743 0.27084443 0.35790157 0.16444126 0.23215237 0.16444126
0.27084443 0.20313331 0.18378729 0.20313331 0.2611714 0.21280633 0.1934603 0.22247934
0.22247934 0.2514984 0.22247934 0.2611714 0.2611714 0.24182539 0.106403165 0.106403165
0.1934603 0.29986346 0.22247934 0.2611714 0.17411427 0.2611714 0.2611714 0.29019046
0.27084443 0.17411427 0.2611714 0.22247934 0.3772476 0.21280633 0.16444126 0.29986346
0.33855554 0.32888252 0.17411427 0.24182539 0.24182539 0.27084443 0.29019046 0.29986346
0.23215237 0.23215237 0.11607619 0.1934603 0.29986346 0.22247934 0.2514984 0.2611714
0.2514984 0.2611714 0.21280633 0.24182539 0.24182539 0.20313331 0.3095365 0.20313331
0.17411427 0.1934603 0.17411427 0.23215237 0.27084443 0.22247934 0.34822854 0.56103486
0.39659363 -0.058038093 -0.048365075 -0.029019047 0.01934603 -0.029019047 -0.07738412 -0.03869206
0.106403165 0.03869206 0.029019047 0.106403165 0.009673015 0.07738412 0.07738412 -0.01934603
-0.01934603 0.03869206 0.01934603 0.087057136 0.06771111 -0.03869206 0.03869206 0.009673015
-0.01934603 0.03869206 0.087057136 0.048365075 0.029019047 0.087057136 -0.07738412 0.09673015
0.09673015 0.029019047 0.048365075 0.048365075 0.06771111 0.0 0.048365075 0.01934603
0.0 0.058038093 0.0 0.07738412 0.0 0.0 -0.01934603 -0.048365075
-0.01934603 0.13542221 -0.03869206 -0.009673015 0.029019047 -0.009673015 0.009673015 0.0
-0.058038093 0.11607619 0.03869206 -0.009673015 -0.029019047 -0.01934603 0.03869206 0.06771111
0.03869206 -0.029019047 0.01934603 -0.01934603 -0.03869206 0.1257492 0.048365075 0.06771111
0.0 -0.03869206 0.058038093 0.09673015 -0.06771111 0.048365075 -0.009673015 0.03869206
0.0 0.03869206 0.0 -0.06771111 -0.029019047 0.009673015 0.01934603 0.01934603
0.048365075 0.058038093 0.03869206 0.029019047 -0.048365075 -0.009673015 -0.058038093 -0.03869206
0.048365075 -0.01934603 -0.058038093 -0.009673015 0.058038093 0.087057136 0.048365075 0.0
0.048365075 -0.048365075 0.0 -0.009673015 0.029019047 0.106403165 -0.009673015 0.06771111
0.07738412 -0.009673015 -0.009673015 -0.01934603 0.048365075 0.0 0.0 -0.009673015
0.14509523 0.09673015 -0.18378729 -0.15476824 -0.058038093 0.01934603 0.07738412 -0.07738412
0.03869206 0.11607619 0.058038093 -0.06771111 0.029019047 0.029019047 0.01934603 0.048365075

sequential_1/conv1d_1/conv1d;StatefulPartitionedCall/sequential_1/conv1d_1/conv1d f4 [8]
00000000: 0000 0000 0000 0000 0000 0000 0000 0000
00000010: 0000 0000 0000 0000 0000 0000 0000 0000
0.0 0.0 0.0 0.0 0.0 0.0 0.0 0.0

sequential_1/conv1d_1/conv1d;StatefulPartitionedCall/sequential_1/conv1d_1/conv1d1 f4 [8, 1, 3, 8]
00000000: bed6 0d3e e4d6 303f fcdb 5ebf a019 7fbf
00000010: 088a bdbe a65d b7be 8317 023f 7f23 593d
00000020: 9b68 b93f e574 d0bc c9ee abbe 1568 bf3f
00000030: f416 75bf 033c c73e 45d4 f33d 9b2d 1ebe
00000040: e498 cd3c 41ca 863e 9c7d 07bf 1588 183f
00000050: 491b 00bf b98c 2b3f ab68 c33f 7c99 8cbe
00000060: d8ca 90bf 0d5a 1b3e 0803 a9bf f92e 34c0
00000070: 603c d03f f20b 39be 5b51 f13e 916a 83bd
00000080: 25c3 c33e 3a1d b0bd 1314 3abe ca7f 8abe
00000090: fa9f ed3e e01f 27be a1f1 31be aca0 b5bd
000000a0: 120f 643f a11e a5bd 56e7 df3d ff82 173e
000000b0: 9d35 c73e f4c7 ca3e f50a 9ebf 3a9a 143e
000000c0: f724 a83f b419 b1bd 954d be3f 0779 6040
000000d0: 96ae ebbf a730 18bb edf5 833c e63e adbc
000000e0: 3ae1 523d 81d0 a53d 1c85 6e3f ddfe 51bd
000000f0: b9cf 8fbe 15b8 6bbd bbcf 9cbe 8608 0e3d
00000100: a719 653e 8201 f2bd 8278 0e3f 4ff6 38bf
00000110: 7ede d53c 7990 3fbd d530 0cc0 5ea6 963d
00000120: 7187 233f 3520 89bf 5c65 523f 6623 3840
00000130: 4fda 7abf 88be 993e 9544 c0bc 5518 f5be
00000140: 9580 8bbf df77 6a3f 1c13 6c3e 5e95 7dbf
00000150: 64bf 993d 6a8c d9be 3e4d 843f c216 2dbb
00000160: 0433 ebbe c35e 25bf a0cd aa3e 8c30 09bf
00000170: ae8e 763d 68e8 3d3c c3f4 43bf 527b 713f
00000180: b256 ffbe f860 383e f3f5 e5be 08f6 abbf
00000190: 0a61 313f 4222 83be b840 7abf 5085 363e
000001a0: 38f5 f63e 8216 6cbd 712f 94be 44bb 5bbe
000001b0: 9a8c 8a3e 4843 b4bd 123e 8ebf 6a75 ffbd
000001c0: 541b 043f e378 963c f7d6 86be 4940 80be
000001d0: ddf3 e03e fb12 c93d c88d a4bf b465 303e
000001e0: 97c3 633f 7d59 6f3c 8dae c7be bdc7 5f3f
000001f0: ed2e 79bf 95b5 08be 9167 4a3e 2eef 803d
00000200: c119 8b3f 53b5 cabe 8544 74bb 4ccc d53f
00000210: 81e3 3abf 7927 9c3d a377 2ebf 7a53 5c3e
00000220: 1f46 46be 78b4 4b3f 6a41 16bf 052d ef3d
00000230: 30eb 17bf cf22 5d3f f83e d63f 4bdc 5abf
00000240: 7ac0 9e3e 6431 7c3f f004 56be e293 51bd
00000250: 15fc c1be a1b5 06bf 275d a03f f8b4 163f
00000260: fb56 163f 225e 22bc de63 113f 251f 943f
00000270: dba7 acbe 1107 ac3f 3f7a a53e ebdb 20bf
00000280: 809e fd3d a0a6 a6bf 4c04 343f 0a35 0e3e
00000290: 169f 123e ea68 30bf 5144 1ac0 56c5 943f
000002a0: ba38 8b3f fd40 c13d 1dc7 06be f1e6 123e
000002b0: 5754 9abf 84a3 2cba 4efa f43e b675 16bd
000002c0: ebcd 1f40 fc7a d5ba 4c4c df3d 6d14 cf3f
000002d0: c9fe 8abf b353 75bc af46 99bf 36ac 913d
000002e0: a788 2040 8800 46be 8973 853e d889 a83f
000002f0: f07f 04bf ce60 ae3d 99e1 f5bf f941 b2bd
0.13851449 0.690779 -0.8705442 -0.99648476 -0.37019372 -0.35813636 0.50817126 0.053012367
1.4485048 -0.025446365 -0.33580616 1.4953638 -0.9573815 0.38912973 0.119057216 -0.15447085
0.025097318 0.26326182 -0.5292604 0.59582645 -0.50041634 0.670116 1.5266317 -0.2746085
-1.1311903 0.1517107 -1.320405 -2.815367 1.6268425 -0.18070963 0.47132382 -0.0641681
0.3823482 -0.085993245 -0.1817172 -0.2705062 0.46411115 -0.16320753 -0.1737733 -0.08868536
0.89085495 -0.080624826 0.10932796 0.14796065 0.3890809 0.39605677 -1.2347094 0.14511958
1.3136281 -0.086474806 1.4867426 3.507387 -1.8412654 -0.0023222358 0.016108477 -0.021148156
0.051484324 0.080964096 0.9317186 -0.051268447 -0.28088167 -0.0575486 -0.30627236 0.034676097
0.22373067 -0.11816694 0.5565263 -0.7225084 0.02610707 -0.04676864 -2.1904805 0.07355951
0.6387854 -1.0712954 0.8218591 2.8771605 -0.9798936 0.30028176 -0.023470202 -0.47870126
-1.0898615 0.9158916 0.23054165 -0.9905604 0.07507208 -0.4248994 1.0336072 -0.002641127
-0.4593736 -0.6459772 0.33360004 -0.535897 0.060194664 0.0115910545 -0.7654535 0.94328797
-0.4987083 0.1800574 -0.44914207 -1.3434458 0.69288695 -0.25612074 -0.97755 0.17824292
0.48233962 -0.057638653 -0.28942445 -0.21458155 0.27060395 -0.088018954 -1.1112692 -0.12473567
0.516042 0.01836819 -0.2633588 -0.25049046 0.43936053 0.09818073 -1.2855768 0.17226297
0.8897032 0.014608738 -0.3900036 0.8741415 -0.9733723 -0.13350518 0.1976607 0.0629562
1.0867234 -0.39591464 -0.0037272286 1.6702971 -0.73003393 0.07624716 -0.681513 0.21516219
-0.19362687 0.7957225 -0.58693564 0.11678509 -0.5934324 0.8638124 1.6737967 -0.8549239
0.31006223 0.98512864 -0.20900321 -0.051166423 -0.37887636 -0.52620894 1.2528428 0.58869886
0.5872647 -0.009910138 0.5679301 1.1572005 -0.33721814 1.3439656 0.3231983 -0.6283557
0.12383747 -1.30196 0.70319057 0.1388742 0.14318499 -0.68910086 -2.4104197 1.1622722
1.0876687 0.09436224 -0.13161893 0.1434591 -1.2056988 -0.0006585645 0.47847217 -0.03673335
2.4969432 -0.0016287263 0.10903224 1.6178108 -1.0859004 -0.014973569 -1.1974696 0.07112925
2.5083406 -0.1933614 0.2606471 1.3167067 -0.5175772 0.08514558 -1.9209472 -0.087039895
