tensorflow/frozen_models/tiny/1605647312/full_model.tflite (tflite, 205556 bytes, 11 tensors)

unknown_0 f4 [16]
-1.1325045e-07 2.1768211e-07 -3.0772856e-08 1.3820121e-06 -3.797361e-07 -2.35677e-08 9.8520594e-08 -1.8169473e-07
2.9451107e-07 7.258888e-07 -2.69337e-07 7.463996e-07 -3.85369e-06 -3.929808e-06 2.0947528e-08 1.9550534e-07
00000000: 1834 f3b3 01bc 6934 1d2b 04b3 937d b935
00000010: 88de cbb4 ec71 cab2 4592 d333 de17 43b4
00000020: 4b1d 9e34 b3da 4235 6599 90b4 315c 4835
00000030: f24e 81b6 cbdc 83b6 1af0 b332 19ec 5134

unknown_12 f4 [64]
-3.1186633 4.1452026 0.008357453 2.3240495 0.9270334 4.7688885 2.056572 2.4908693
4.4095364 4.3741355 2.2969062 2.7710717 5.8364882 4.32676 -0.11547331 2.5014546
3.6518545 1.0419961 6.5632405 2.370564 6.8133364 5.6134915 4.038548 0.8084565
4.572878 -2.1141274 3.9529548 -1.192561 0.86200434 1.3553742 1.5636868 2.8101945
9.82259 3.1647103 2.5500433 4.126587 0.25502443 3.8057115 2.00743 9.360303
3.6651664 6.8104877 5.2285137 4.1836877 2.1491277 1.473593 2.2719026 2.4857879
3.768367 2.4074855 0.93299025 3.1722953 0.71482563 2.1952448 3.0534544 5.430915
5.3816314 5.0090003 1.9649241 3.1055934 2.1229105 8.655139 4.387065 2.2286904
00000000: 2e98 47c0 80a5 8440 b3ed 083c 3abd 1440
00000010: 1052 6d3f bc9a 9840 e09e 0340 676a 1f40
00000020: ec1a 8d40 ebf8 8b40 8300 1340 3d59 3140
00000030: 83c4 ba40 d174 8a40 457d ecbd d517 2040
00000040: fcb7 6940 2160 853f 1106 d240 52b7 1740
00000050: da06 da40 b9a1 b340 c93b 8140 01f7 4e3f
00000060: 0455 9240 dd4d 07c0 36fd 7c40 d7a5 98bf
00000070: 51ac 5c3f e77c ad3f e426 c83f 3ada 3340
00000080: 5429 1d41 9d8a 4a40 e933 2340 000d 8440
00000090: 9092 823e c790 7340 bc79 0040 cdc3 1541
000000a0: 1692 6a40 84ef d940 fc4f a740 c5e0 8540
000000b0: 4f8b 0940 b29e bc3f da66 1140 2617 1f40
000000c0: ed2c 7140 3e14 1a40 73d8 6e3f e306 4b40
000000d0: d0fe 363f e47e 0c40 cc6b 4340 0eca ad40
000000e0: 5336 ac40 bb49 a040 a282 fb3f 0bc2 4640
000000f0: c4dd 0740 737b 0a41 d662 8c40 dda2 0e40

unknown_6 f4 [16]
7.522692e-06 6.334597e-06 -3.7765922e-06 -1.3643587e-05 -2.1081105e-07 6.9700786e-06 1.4670267e-06 -1.2179745e-06
7.919412e-08 -8.596531e-06 -1.1459025e-06 1.8796023e-06 1.1070706e-05 -9.4810986e-07 -1.5867444e-08 9.837492e-09
00000000: 6f6b fc36 c68d d436 5c71 7db6 c3e6 64b7
00000010: 4d5b 62b4 85e0 e936 a7e6 c435 4979 a3b5
00000020: 6e11 aa33 d239 10b7 e9cc 99b5 a546 fc35
00000030: 52bc 3937 9d81 7eb5 e14c 88b2 bf01 2932

sequential_1/batch_normalization/batchnorm/mul;StatefulPartitionedCall/sequential_1/batch_normalization/batchnorm/mul f4 [16]
-0.06422371 0.005415508 0.039544526 0.09242812 0.012854876 0.05945911 -0.0075498526 -0.007511232
0.0019937018 0.011089694 0.030660933 0.00044728245 0.6634274 0.6601641 0.06480974 0.0046648947
00000000: b887 83bd 9374 b13b 71f9 213d f44a bd3d
00000010: 429d 523c 658b 733d c164 f7bb c820 f6bb
00000020: c4a8 023b 8cb1 353c a32c fb3c 3c81 ea39
00000030: 61d6 293f 8400 293f f8ba 843d f9db 983b

sequential_1/batch_normalization/batchnorm/sub;StatefulPartitionedCall/sequential_1/batch_normalization/batchnorm/sub f4 [16]
-4.1237893 0.2940473 1.5819227 1.8817002 -1.0018046 1.2072798 -0.59603965 -0.13500053
0.3265089 -0.81906015 -0.5365666 -0.12279274 0.44377854 0.6858034 1.1260628 -0.056496352
00000000: 15f6 83c0 5e8d 963e 717c ca3f 8ddb f03f
00000010: 223b 80bf 2588 9a3f 0e96 18bf 943d 0abe
00000020: 2d2c a73e edad 51bf 6e5c 09bf c37a fbbd
00000030: f136 e33e d090 2f3f d322 903f b868 67bd

sequential_1/batch_normalization_1/batchnorm/sub;StatefulPartitionedCall/sequential_1/batch_normalization_1/batchnorm/sub f4 [16]
-0.1685852 -0.09959083 0.15986922 0.2216331 0.053999767 -0.14202043 -0.05247573 0.035046212
-0.08207581 0.45140898 -0.08808507 -0.033657245 -0.24605946 -0.33606845 -0.046427034 -0.20724541
00000000: 99a1 2cbe 47f6 cbbd c2b4 233e caf3 623e
00000010: dc2e 5d3d ce6d 11be cbf0 56bd 9e8c 0f3d
00000020: 5d17 a8bd 141f e73e f265 b4bd 2edc 09bd
00000030: 03f7 7bbe 2a11 acbe 462a 3ebd 2438 54be

sequential_1/dense/MatMul;StatefulPartitionedCall/sequential_1/dense/MatMul f4 [64, 464]
-0.1433723 0.039542988 0.13714233 -0.32316455 0.0010914278 0.4277028 -0.02949801 -0.040433697
0.08201254 -0.5731774 -0.092507616 0.05905199 0.43843418 0.37285835 -0.13674696 0.5586394
-0.15483929 0.056447834 -0.047080453 -0.12389401 -0.14802732 0.21061118 0.019486958 0.06934527
0.007258948 -0.25111306 -0.22529015 0.110329956 0.12960477 0.122976355 0.010880016 0.22511251
-0.26929793 -0.09786169 0.035826948 0.13029863 -0.02164159 -0.1890154 -0.16677332 0.10826896
0.068340085 -0.016881473 -0.14677705 0.01618038 -0.33661336 -0.026167737 0.10197126 -0.0032375567
-0.3328082 -0.108268015 -0.10551233 0.30058914 -0.24289009 -0.37955958 -0.12926845 0.13931525
0.018192466 0.29885703 -0.09904354 -0.06417658 -0.3583147 -0.049311664 0.07180078 -0.051881365
-0.46357486 -0.45613527 -0.008570564 0.6204981 -0.019576285 -0.44518155 -0.10423343 -0.055277795
0.027634691 0.21078594 0.24590203 -0.3385381 -0.4214582 0.037862703 0.22533543 -0.05091567
-0.43803826 -0.3004574 0.005175896 0.54401773 -0.0704846 -0.29082623 -0.117987186 -0.111641005
-0.031133287 0.14208302 0.33789435 -0.30361325 -0.28771275 0.05792198 0.2331835 -0.07393298
-0.47442892 -0.35223606 0.025710851 0.48879078 0.035746038 -0.36139286 -0.15447529 -0.023752254
0.033358946 0.074245 0.13634315 -0.21714193 -0.40309033 -0.0017162227 0.12294598 -0.028236696
-0.43812275 -0.2510656 -0.07787868 0.3780958 -0.08690582 -0.3122421 -0.20765334 -0.016685527
0.06987958 0.19828488 0.1169524 -0.24224184 -0.37152702 -0.024574207 0.098104335 -0.0237254
-0.35317507 -0.318767 -0.05151762 0.47399807 -0.0347682 -0.3358027 -0.05766458 -0.20100883
-0.055029083 0.20148245 0.2167614 -0.31633058 -0.34096974 0.08855555 0.19770549 -0.036098205
-0.46213332 -0.31906524 0.013297575 0.47859785 -0.01652834 -0.31019947 -0.14420696 -0.0314811
0.05767146 0.036007356 0.3327487 -0.295325 -0.301761 0.1592926 0.35590437 -0.094840825
-0.30756915 -0.418527 0.026853876 0.34035566 0.044644505 -0.4164869 -0.14875592 -0.14872113
-0.0556897 -0.111942336 0.4141092 -0.3493378 -0.23714453 0.20112303 0.3218206 -0.055239484
-0.2502014 -0.33712745 -0.021151278 0.35461572 -0.09790864 -0.3937996 -0.13880277 -0.15288304
0.0074689477 0.015902476 0.26522633 -0.20758916 -0.23899053 0.09076239 0.07890662 0.18162796
-0.37845913 -0.19262838 -0.109017804 0.29784438 0.007960332 -0.2870836 -0.08170842 -0.14567891
0.0125130005 -0.048051268 0.25761834 -0.17717017 -0.20006458 0.13987277 0.15685618 0.012032166
-0.37125167 -0.27300838 0.0062866886 0.32439217 0.016019622 -0.21221502 -0.17186464 0.0057872725
0.002398895 -0.06983136 0.18149067 -0.15303397 -0.24496023 0.08676 0.23943219 0.0063322852
-0.3349917 -0.22897378 -0.030078137 0.28129774 -0.10826577 -0.3254341 -0.10068533 -0.08153406
0.05658515 -0.05813583 0.039848164 -0.23700354 -0.13066101 0.10691433 0.03083704 0.15548646
-0.28363076 -0.24959338 -0.039777935 0.23046829 -0.033384953 -0.17587478 -0.019123182 -0.11490824
0.013358554 -0.020737331 0.20172332 -0.12969449 -0.16289993 0.020078063 0.054874793 0.014285777
00000000: 30d0 12be d4f7 213d 0a6f 0c3e d375 a5be
00000010: 3d0e 8f3a ddfb da3e d0a5 f1bc ce9d 25bd
00000020: 31f6 a73d c1bb 12bf a274 bdbd 80e0 713d
00000030: 727a e03e 4ae7 be3e 6507 0cbe fe02 0f3f
00000040: 318e 1ebe d835 673d 6fd7 40bd 25bc fdbd
00000050: 7994 17be 75aa 573e 1da3 9f3c e504 8e3d
00000060: 78dc ed3b e491 80be 76b2 66be acf4 e13d
00000070: 1db7 043e 07db fb3d 1842 323c e583 663e
00000080: 6be1 89be b66b c8bd 47bf 123d 016d 053e
00000090: b449 b1bc 418d 41be a0c6 2abe 1ebc dd3d
000000a0: e3f5 8b3d 044b 8abc b94c 16be b78c 843c
000000b0: 9658 acbe b95d d6bc 4fd6 d03d 302d 54bb
000000c0: d665 aabe 9fbb ddbd d916 d8bd d2e6 993e
000000d0: 2eb8 78be a255 c2be f35e 04be a8a8 0e3e
000000e0: 5e08 953c ca03 993e 57d7 cabd 036f 83bd
000000f0: 0675 b7be 07fb 49bd 4a0c 933d 8e81 54bd
00000100: af59 edbe 908a e9be 8d6b 0cbc f7d8 1e3f
00000110: 725e a0bc d6ee e3be 5678 d5bd f86a 62bd
00000120: 2662 e23c 45d8 573e becd 7b3e de54 adbe
00000130: 5fc9 d7be ec15 1b3d 55be 663e f38c 50bd
00000140: 8d46 e0be 8dd5 99be 909a a93b bf44 0b3f
00000150: 3b5a 90bd 2de7 94be 44a3 f1bd 0aa4 e4bd
00000160: 3c0b ffbc 367e 113e 7d00 ad3e 3273 9bbe
00000170: 164f 93be 993f 6d3d a8c7 6e3e 2d6a 97bd
00000180: 59e8 f2be 4958 b4be 909f d23c c942 fa3e
00000190: 706a 123d 7c08 b9be c52e 1ebe 1694 c2bc
000001a0: 64a3 083d c30d 983d 8a9d 0b3e 745a 5ebe
000001b0: db61 cebe e1f2 e0ba 1acb fb3d a550 e7bc
000001c0: a051 e0be ac8b 80be db7e 9fbd c695 c13e
000001d0: aefb b1bd 32de 9fbe 14a3 54be 16b0 88bc
000001e0: 061d 8f3d 310b 4b3e bd84 ef3d 3f0e 78be
000001f0: ca38 bebe d94f c9bc edea c83d c55b c2bc
00000200: 5dd3 b4be 6e35 a3be 2404 53bd e0af f23e
00000210: 1a69 0ebd 55ee abbe b231 6cbd 42d5 4dbe
00000220: 2d66 61bd 6a51 4e3e b3f6 5d3e 15f6 a1be
00000230: 9693 aebe 9d5c b53d 4f73 4a3e b6db 13bd
00000240: bd9c ecbe 855c a3be 12de 593c c70a f53e
00000250: 7166 87bc 77d2 9ebe fdaa 13be 53f2 00bd
00000260: e938 6c3d 737c 133d 0a5e aa3e d734 97be
00000270: 6b80 9abe 991d 233e 1939 b63e e83b c2bd
00000280: b479 9dbe 2c49 d6be a9fc db3c 1943 ae3e
00000290: 28dd 363d c53d d5be 7953 18be 5a4a 18be
000002a0: e21a 64bd 0642 e5bd 1f06 d43e 67dc b2be
000002b0: 04d6 72be 32f3 4d3e abc5 a43e cc42 62bd
000002c0: 661a 80be f89b acbe 7245 adbc 3190 b53e
000002d0: 5384 c8bd 1aa0 c9be 5022 0ebe 5f8d 1cbe
000002e0: 13be f43b e945 823c bfcb 873e 4192 54be
000002f0: efb9 74be a2e1 b93d cb99 a13d aefc 393e
00000300: 65c5 c1be 6040 45be ba44 dfbd 0f7f 983e
00000310: 0d6c 023c 9ffc 92be be56 a7bd da2c 15be
00000320: 5403 4d3c 68d1 44bd 8de6 833e 196c 35be
00000330: bbdd 4cbe cf3a 0f3e e89e 203e 9022 453c
00000340: b314 bebe c1c7 8bbe 9100 ce3b bb16 a63e
00000350: 953b 833c e54e 59be 49fd 2fbe 29a3 bd3b
00000360: c836 1d3b be03 8fbd b1d8 393e f0b4 1cbe
00000370: dbd6 7abe 3aaf b13d b62d 753e 0f7f cf3b
00000380: 0884 abbe 1a78 6abe 6d66 f6bc 4206 903e
00000390: 72ba ddbd 4c9f a6be 1c34 cebd 54fb a6bd
000003a0: d5c5 673d d61f 6ebd d437 233d 0eb1 72be
000003b0: 00cc 05be e6f5 da3d f69d fc3c d837 1f3e
000003c0: 0d38 91be 6895 7fbe 30ee 22bd e1ff 6b3e
000003d0: a9be 08bd 8518 34be 38a8 9cbc 0355 ebbd
000003e0: d6dd 5a3c 56e1 a9bc 8f90 4e3e a2ce 04be
000003f0: 3dcf 26be c07a a43c 64c4 603d e40e 6a3c

sequential_1/batch_normalization_1/batchnorm/mul;StatefulPartitionedCall/sequential_1/batch_normalization_1/batchnorm/mul f4 [16]
0.22472462 0.11545894 0.17073043 0.1328984 0.122078985 0.07744159 0.1075708 0.106919736
-0.10831381 0.13827296 0.09246952 0.11486748 0.08734319 0.20521425 0.09154707 0.084504984
00000000: 361e 663e bd75 ec3d f5d3 2e3e 8516 083e
00000010: 8c04 fa3d b299 9e3d 144e dc3d bcf8 da3d
00000020: a1d3 ddbd 6d97 0d3e a960 bd3d a43f eb3d
00000030: fde0 b23d af23 523e 087d bb3d f310 ad3d

sequential_1/conv1d/conv1d;StatefulPartitionedCall/sequential_1/conv1d/conv1d f4 [16, 1, 10, 121]
-0.15740162 -0.172407 -0.20383613 -0.17778324 -0.17129846 -0.20068786 -0.3523622 -0.19989483
-0.23771358 -0.15769792 -0.24229872 -0.13542232 -0.13312252 -0.2056495 -0.2331562 -0.19054477
-0.19095868 -0.19565062 -0.1800868 -0.14198247 -0.1923434 -0.09006295 -0.15296736 -0.20814286
-0.23674352 -0.12536973 -0.106440164 -0.098189436 -0.28896692 -0.18233134 -0.12141093 -0.1427173
-0.21581069 -0.17330725 -0.19988514 -0.1769388 -0.17286181 -0.22407013 -0.1748968 -0.22632454
-0.24331927 -0.24047847 -0.1976229 -0.24254258 -0.20853743 -0.1891712 -0.25574204 -0.106731184
-0.29908684 -0.14008778 -0.20986767 -0.2170031 -0.21718264 -0.17608526 -0.18902524 -0.11870015
-0.22927834 -0.17929605 -0.22807379 -0.21839927 -0.22300836 -0.23863517 -0.1463226 -0.12798816
-0.17191371 -0.19349998 -0.22066323 -0.13366587 -0.24959834 -0.18276788 -0.17222404 -0.13615063
-0.1724945 -0.29491076 -0.2574395 -0.23695345 -0.13679005 -0.26541463 -0.21337548 -0.22847524
-0.19704084 -0.22387978 -0.1880156 -0.2163177 -0.27563572 -0.25122017 -0.1724479 -0.15952972
-0.28417554 -0.21866454 -0.22128712 -0.24376506 -0.22585458 -0.21692595 -0.19527197 -0.22598644
-0.24451351 -0.23042583 -0.1360786 -0.17556138 -0.23609863 -0.1222907 -0.15577997 -0.2836222
-0.21115126 -0.27246955 -0.12617342 -0.075756334 -0.267421 -0.1758248 -0.18140186 -0.1873395
-0.21182075 -0.14570688 -0.22636585 -0.15723664 -0.16309865 -0.17121075 -0.27485758 -0.37252042
-0.31302586 0.05213517 0.033182353 0.0061687795 -0.06953179 -0.043923184 -0.11318757 -0.15057385
-0.030789807 -0.101996414 -0.04221439 -0.0014596282 -0.121181734 0.003884625 -0.045964163 -0.04607707
-0.038653012 0.038971964 -0.10508848 -0.07988902 -0.12133662 -0.0041874186 -0.031543095 -0.048339207
-0.0488304 -0.09928615 -0.07996212 -0.10395451 -0.09906842 -0.13834193 0.013920679 -0.106933646
-0.053342674 -0.112513654 -0.06376386 -0.10382325 -0.07498383 -0.03719929 0.01443792 -0.012188688
-0.03288839 -0.077791624 0.0070629753 0.0018082215 0.013567107 -0.08769288 0.015688447 -0.07291166
0.031155422 -0.04450499 -0.06921707 -0.06979464 -0.04339332 -0.027584013 -0.0464511 -0.07541563
-0.048756402 -0.020518463 -0.017908309 -0.015111309 0.021940898 -0.02384527 -0.05093294 -0.0677377
-0.0899684 -0.055620506 -0.08457008 0.014016933 0.0360263 -0.08178285 -0.070092976 -0.057415877
-0.03745177 -0.012473249 -0.11345323 0.008335327 0.064896844 0.014383952 -0.05566757 -0.0038522298
0.003910444 -0.10373913 -0.007442209 0.0056908536 -0.0748493 -0.03227213 0.00589769 -0.045733538
-0.07960671 -0.0057338513 -0.044286665 0.030848645 -0.0026070615 -0.026963381 -0.01836903 -0.072217524
-0.10582406 -0.01594325 -0.0976883 -0.053223394 -0.026518708 -0.04711039 0.00021679452 -0.073322505
-0.022275735 -0.08628525 -0.042527523 -0.0676984 0.0031661403 -0.09257899 -0.107209414 -0.05040097
-0.130417 -0.081900455 -0.052995052 -0.06579179 -0.040750496 0.0147404745 -0.03643898 -0.10533242
-0.1133133 -0.081162445 0.08665803 0.13810307 -0.045343895 0.010041749 -0.012220621 0.0091434615
-0.06785303 -0.034361307 0.019405656 -0.03970683 -0.058723133 -0.034163572 0.04477739 -0.030081412
00000000: e42d 21be 768b 30be 6bba 50be cf0c 36be
00000010: dd68 2fbe 1e81 4dbe d168 b4be 3bb1 4cbe
00000020: 306b 73be 907b 21be 281d 78be 26ac 0abe
00000030: 4551 08be c895 52be 80c0 6ebe 2b1e 43be
00000040: ac8a 43be a358 48be ad68 38be da63 11be
00000050: abf5 44be ed72 b8bd 7aa3 1cbe 6723 55be
00000060: e56c 72be ec60 00be 4dfd d9bd 8b17 c9bd
00000070: 79f3 93be 11b5 3abe 4ba6 f8bd 7c24 12be
00000080: 7afd 5cbe 7577 31be b1ae 4cbe 722f 35be
00000090: b002 31be a472 65be 2618 33be 9fc1 67be
000000a0: b028 79be fd3f 76be a85d 4abe 155d 78be
000000b0: d68a 55be 18b6 41be 9ff0 82be e195 dabd
000000c0: e921 99be 2c73 0fbe 8de7 56be 1036 5ebe
000000d0: 2065 5ebe b24f 34be d58f 41be 1019 f3bd
000000e0: f1c7 6abe 6299 37be 2d8c 69be 0fa4 5fbe
000000f0: 4e5c 64be c75c 74be 97d5 15be 540f 03be
00000100: 260a 30be dc24 46be 8bf5 61be b5df 08be
00000110: b596 7fbe 8127 3bbe 805b 30be 126b 0bbe
00000120: 66a2 30be 8bfe 96be 1ccf 83be eda3 72be
00000130: b112 0cbe 6de4 87be 1a7f 5abe 6af5 69be
00000140: 13c5 49be be40 65be 2987 40be 6382 5dbe
00000150: 2020 8dbe ee9f 80be 2f96 30be c25b 23be
00000160: 757f 91be 99e9 5fbe 1799 62be 8c9d 79be
00000170: 6c46 67be d621 5ebe 60f5 47be fd68 67be
00000180: c061 7abe c0f4 6bbe 3058 0bbe 5dc6 33be
00000190: d7c3 71be 8c73 fabd c984 1fbe ee36 91be
000001a0: 0938 58be 2181 8bbe 9b33 01be 2326 9bbd
000001b0: 68eb 88be 6b0b 34be 69c1 39be edd5 3fbe
000001c0: 8ae7 58be 2f34 15be 73cc 67be a402 21be
000001d0: 5503 27be df51 2fbe 22ba 8cbe ffba bebe
000001e0: ed44 a0be b08b 553d 38ea 073d 7923 ca3b
000001f0: af66 8ebd cce8 33bd e2ce e7bd 0830 1abe
00000200: e83a fcbc 7fe3 d0bd ffe8 2cbd ff50 bfba
00000210: 212e f8bd 3195 7e3b eb44 3cbd 4fbb 3cbd
00000220: 9f52 1ebd 11a1 1f3d a138 d7bd db9c a3bd
00000230: 557f f8bd 9d36 89bb 5533 01bd 55ff 45bd
00000240: 6302 48bd 8956 cbbd 2ec3 a3bd 1ae6 d4bd
00000250: 62e4 cabd 82a9 0dbe 8f13 643c 0700 dbbd
00000260: d97d 5abd 8f6d e6bd a096 82bd 49a1 d4bd
00000270: 1f91 99bd 485e 18bd 078d 6c3c 10b3 47bc
00000280: fab5 06bd 3751 9fbd 8870 e73b d801 ed3a
00000290: 9248 5e3c 5398 b3bd 0f85 803c b552 95bd
000002a0: a839 ff3c dd4a 36bd aec1 8dbd 7ef0 8ebd
000002b0: 32bd 31bd def7 e1bc 8243 3ebd 8373 9abd
000002c0: cbb4 47bd 5616 a8bc 72b4 92bc 6c95 77bc
000002d0: 66bd b33c 2857 c3bc 0f9f 50bd 10ba 8abd
000002e0: 5a41 b8bd 54d2 63bd 1433 adbd 47a7 653c
000002f0: 5090 133d c47d a7bd e88c 8fbd e92c 6bbd
00000300: 0767 19bd 995c 4cbc 2b5a e8bd e590 083c
00000310: a3e8 843d abaa 6b3c ae03 64bd b175 7cbb
00000320: 2f23 803b 2e75 d4bd c6dd f3bb 577a ba3b
00000330: 974a 99bd c82f 04bd 6941 c13b 1753 3bbd
00000340: d808 a3bd 08e3 bbbb ef65 35bd 4cb6 fc3c
00000350: 3cdb 2abb 4fe2 dcbc a67a 96bc c8e6 93bd
00000360: 49ba d8bd 6b9b 82bc ce10 c8bd c600 5abd
00000370: c33d d9bc d3f6 40bd 5653 6339 1c2a 96bd
00000380: 9a7b b6bc 52b6 b0bd 5731 2ebd 75a5 8abd
00000390: 057f 4f3b 0e9a bdbd 9c90 dbbd 3f71 4ebd
000003a0: 098c 05be 6dbb a7bd 5711 59bd d9bd 86bd
000003b0: fee9 26bd 0882 713c 0a41 15bd 86b8 d7bd
000003c0: ce10 e8bd 7f38 a6bd c479 b13d e46a 0d3e
000003d0: 85ba 39bd 2686 243c 0039 48bc 75ce 153c
000003e0: 88f6 8abd 71be 0cbd 9cf8 9e3c a1a3 22bd
000003f0: ab87 70bd 1aef 0bbd 7f68 373d 4b6d f6bc

sequential_1/conv1d_1/conv1d;StatefulPartitionedCall/sequential_1/conv1d_1/conv1d f4 [16]
0.0 0.0 0.0 0.0 0.0 0.0 0.0 0.0
0.0 0.0 0.0 0.0 0.0 0.0 0.0 0.0
00000000: 0000 0000 0000 0000 0000 0000 0000 0000
00000010: 0000 0000 0000 0000 0000 0000 0000 0000
00000020: 0000 0000 0000 0000 0000 0000 0000 0000
00000030: 0000 0000 0000 0000 0000 0000 0000 0000

sequential_1/conv1d_1/conv1d;StatefulPartitionedCall/sequential_1/conv1d_1/conv1d1 f4 [16, 1, 3, 16]
-0.10813926 -0.6869942 -1.0323511 0.7380745 0.3609104 0.08006961 0.30888227 0.43273312
-0.57473713 0.25203517 0.1829944 -0.17156388 0.05475916 -0.14520124 -0.485104 -0.4082315
0.7126379 -0.08121381 0.65647626 0.106854536 0.2119624 -0.014649037 0.49320903 0.29717383
-0.6370632 0.67924774 0.16809516 -0.7218247 -0.234222 0.117707364 -0.19181535 -0.12690909
0.5511949 0.18649651 0.5493225 0.7405203 -0.018117633 0.16049348 0.4759541 0.055223513
-0.5890174 0.6238403 0.25993317 -0.6654918 -0.056103677 -0.013624869 0.22561522 -0.027208084
-0.24799922 -0.50499195 -1.5413196 1.129863 0.040815193 -0.04070864 0.049365792 0.43425038
0.14512382 -0.0404503 0.014929167 0.074410856 0.51419556 -0.30777344 -0.36329514 -0.5129734
0.38017204 -0.0016702209 0.6672853 -0.79508907 0.6331977 -0.133971 0.3210681 -0.103863716
-0.76037484 0.32423264 -0.1275485 -0.3608551 -0.27778214 0.23869926 -0.13063475 -0.015165213
-0.004950664 -0.14527059 0.24927904 0.28190857 0.29625794 -0.16683319 0.09829905 -0.14136186
-0.47103417 0.6435666 0.19260068 -0.1924617 0.2619575 0.41886142 0.16934164 0.22231473
0.095738254 0.48360518 0.6962997 -0.51783276 -0.067209475 0.21815866 -0.21256241 -0.06615057
0.30993554 -0.447429 -0.025563212 0.10827972 -0.49327695 0.15579394 0.44653204 0.49641457
-0.39710727 -0.098480545 -0.83730656 0.14973518 0.087115146 -0.12819366 -0.6029549 -0.13003443
0.79708153 -0.42834574 -0.0979077 0.37322888 0.5263367 0.068910874 -0.13080238 -0.0566839
0.16276698 -0.32505417 -1.0312105 -2.3627408 1.4907366 -0.05068367 0.08700518 -0.13859399
-0.32473266 -1.0891248 0.042038478 -0.009338578 -0.3173858 -0.48891217 -0.42870176 0.008210145
0.61070937 0.50943524 2.557777 -0.76151043 0.34326524 0.39337033 0.19047818 -0.1533695
-0.4331029 -0.067118846 -0.1577354 -0.39436668 0.0057179783 -0.0300359 0.7382765 0.4204121
-0.032957163 -0.1471834 -0.32494137 0.41751862 0.031144813 0.18706603 -0.2147151 0.25303066
0.6072371 -0.34157738 -0.15865786 0.48814598 -0.0033266493 -0.091014616 0.20409833 -0.25871
-0.22026095 -0.26455578 -0.74743825 0.22046222 0.05331823 0.31130153 -0.115961745 0.42413366
0.4395785 -0.44792685 -0.14027975 0.39217994 -0.002642004 -0.1300309 0.058804747 -0.17856099
0.3349345 0.1927972 0.78261447 -0.29805863 -0.1215121 0.13444676 -0.33617616 -0.43530527
-0.18119845 -0.46011844 -0.31403643 -0.09682095 -0.58455163 0.69705796 0.01427294 0.25153685
-0.0055935937 -0.121287994 -0.6368434 0.1705665 0.23027869 0.12553036 -0.17253304 -0.19479728
0.055823006 -0.7632554 -0.20379958 0.05464767 0.16339469 -1.2995596 0.015083622 0.15177739
0.5647603 -0.40889588 0.15845585 -0.12762062 0.67154545 -0.06593881 0.0037035665 -0.22479044
-0.86643296 0.32738894 -0.15913539 -0.18192434 0.78815573 0.73809826 -0.11857899 0.11156729
-0.6356201 -0.2617075 -1.4473104 0.30988368 -0.068280876 -0.1798575 -0.19105868 0.034286506
0.4496014 -0.23406997 0.056371905 0.57241356 -0.03321366 -0.17500682 -0.17483798 -0.41810703
00000000: 1e78 ddbd dade 2fbf 1524 84bf 73f2 3c3f
00000010: 3fc9 b83e 89fb a33d d125 9e3e 328f dd3e
00000020: f921 13bf c10a 813e e262 3b3e 71ae 2fbe
00000030: 244b 603d a2af 14be 8d5f f8be b803 d1be
00000040: 706f 363f 6d53 a6bd d40e 283f 8dd6 da3d
00000050: ac0c 593e 8402 70bc e585 fc3e 2b27 983e
00000060: 9316 23bf 2ee3 2d3f 2321 2c3e 81c9 38bf
00000070: e4d7 6fbe 8f10 f13d 3e6b 44be 75f4 01be
00000080: 1c1b 0d3f f1f8 3e3e 66a0 0c3f bd92 3d3f
00000090: 6e6b 94bc 6758 243e 41b0 f33e 0d32 623d
000000a0: d8c9 16bf ffb3 1f3f f615 853e ac5d 2abf
000000b0: f8cc 65bd d83a 5fbc ad07 673e 7de3 debc
000000c0: 82f3 7dbe 2747 01bf f649 c5bf 5a9f 903f
000000d0: d52d 273d 1abe 26bd c933 4a3d 1156 de3e
000000e0: 579b 143e 37af 25bd 7799 743c b864 983d
000000f0: 52a2 033f 7b94 9dbe d201 babe 3a52 03bf
00000100: e9a5 c23e 50eb daba 36d3 2a3f f58a 4bbf
00000110: 3f19 223f b22f 09be 0a63 a43e 80b6 d4bd
00000120: eda7 42bf d201 a63e 139c 02be 00c2 b8be
00000130: 7639 8ebe 946d 743e 1ec5 05be 8377 78bc
00000140: 2e39 a2bb d0c1 14be 0143 7f3e 5256 903e
00000150: 1faf 973e 52d6 2abe 0351 c93d 2ac1 10be
00000160: 642b f1be c8c0 243f 1d39 453e ae14 45be
00000170: 4b1f 863e 0175 d63e e567 2d3e 79a6 633e
00000180: 6b12 c43d 199b f73e b240 323f b090 04bf
00000190: 1fa5 89bd fc64 5f3e f6a9 59be f379 87bd
000001a0: dfaf 9e3e 6a15 e5be f169 d1bc c2c1 dd3d
000001b0: cc8e fcbe 7288 1f3e d99f e43e 0d2a fe3e
000001c0: a551 cbbe 2bb0 c9bd b959 56bf 2e54 193e
000001d0: 6d69 b23d 3345 03be 415b 1abf bf27 05be
000001e0: 890d 4c3f 2250 dbbe d583 c8bd db17 bf3e
000001f0: 01be 063f 2521 8d3d 0ff1 05be 612d 68bd
00000200: 63ac 263e 806d a6be b5fe 83bf 2537 17c0
00000210: 75d0 be3f ae99 4fbd c62f b23d 95eb 0dbe
00000220: 5c43 a6be 7168 8bbf 8a30 2c3d d600 19bc
00000230: 6480 a2be b252 fabe cc7e dbbe d883 063c
00000240: 7357 1c3f 596a 023f 9eb2 2340 59f2 42bf
00000250: 76c0 af3e d667 c93e b60c 433e e50c 1dbe
00000260: aabf ddbe 9b75 89bd 6485 21be 6eea c9be
00000270: e15d bb3b d90d f6bc b0ff 3c3f 4140 d73e
00000280: 17fe 06bd 3fb7 16be b75e a6be 00c5 d53e
00000290: 6823 ff3c 3d8e 3f3e 46de 5bbe 3c8d 813e
000002a0: e473 1b3f 3be3 aebe 3577 22be 45ee f93e
000002b0: ea03 5abb df65 babd 27ff 503e a375 84be
000002c0: 168c 61be db73 87be 1d58 3fbf d9c0 613e
000002d0: 3764 5a3d ea62 9f3e 5a7d edbd 0c28 d93e
000002e0: 6f10 e13e ab56 e5be 7fa5 0fbe cfcb c83e
000002f0: 7925 2dbb d226 05be 3fdd 703d b1d8 36be
00000300: 897c ab3e a16c 453e 6c59 483f 249b 98be
00000310: 56db f8bd 69ac 093e 481f acbe 55e0 debe
00000320: 168c 39be a594 ebbe 62c9 a0be 104a c6bd
00000330: 2da5 15bf 6472 323f 0dd9 693c 70c9 803e
00000340: 774a b7bb d765 f8bd 2b08 23bf fca8 2e3e
00000350: 2dce 6b3e 088b 003e 80ac 30be f078 47be
00000360: aaa6 643d b564 43bf d6b0 50be 3cd6 5f3d
00000370: f050 273e f857 a6bf 4c21 773c 886b 1b3e
00000380: 2294 103f cd5a d1be 4042 223e fbae 02be
00000390: 67ea 2b3f ed0a 87bd 89b7 723b 772f 66be
000003a0: 8dce 5dbf 869f a73e 63f4 22be 604a 3abe
000003b0: 93c4 493f 02f4 3c3f 8bd9 f2bd 647d e43d
000003c0: 00b8 22bf 87fe 85be 7841 b9bf 13a9 9e3e
000003d0: d8d6 8bbd 912c 38be e3a4 43be 0270 0c3d
000003e0: 2832 e63e 0ab0 6fbe 3ae6 663d b289 123f
000003f0: 0c0b 08bd fd34 33be ba08 33be 2012 d6be
