tensorflow/frozen_models/tiny/1605647312/quant_model.tflite (tflite, 107616 bytes, 11 tensors)

unknown_0 f2 [16]
0	0x8002	-1e-07
1	0x0004	2.4e-07
2	0x8001	-6e-08
3	0x0017	1.4e-06
4	0x8006	-3.6e-07
5	0x8000	-0.0
6	0x0002	1e-07
7	0x8003	-2e-07
8	0x0005	3e-07
9	0x000c	7e-07
10	0x8005	-3e-07
11	0x000d	8e-07
12	0x8041	-3.9e-06
13	0x8042	-3.93e-06
14	0x0000	0.0
15	0x0003	2e-07

unknown_12 f2 [64]
0	0xc23d	-3.12
1	0x4425	4.145
2	0x2047	0.008354
3	0x40a6	2.324
4	0x3b6b	0.9272
5	0x44c5	4.77
6	0x401d	2.057
7	0x40fb	2.49
8	0x4469	4.41
9	0x4460	4.375
10	0x4098	2.297
11	0x418b	2.771
12	0x45d6	5.836
13	0x4454	4.33
14	0xaf64	-0.1155
15	0x4101	2.502
16	0x434e	3.652
17	0x3c2b	1.042
18	0x4690	6.562
19	0x40be	2.371
20	0x46d0	6.812
21	0x459d	5.613
22	0x440a	4.04
23	0x3a78	0.8086
24	0x4493	4.574
25	0xc03a	-2.113
26	0x43e8	3.953
27	0xbcc5	-1.192
28	0x3ae5	0.862
29	0x3d6c	1.355
30	0x3e41	1.563
31	0x419f	2.81
32	0x48e9	9.82
33	0x4254	3.164
34	0x411a	2.55
35	0x4420	4.125
36	0x3415	0.2551
37	0x439d	3.807
38	0x4004	2.008
39	0x48ae	9.36
40	0x4355	3.666
41	0x46cf	6.81
42	0x453a	5.227
43	0x442f	4.184
44	0x404c	2.148
45	0x3de5	1.474
46	0x408b	2.271
47	0x40f9	2.486
48	0x4389	3.768
49	0x40d1	2.408
50	0x3b77	0.933
51	0x4258	3.172
52	0x39b8	0.715
53	0x4064	2.195
54	0x421b	3.053
55	0x456e	5.43
56	0x4562	5.383
57	0x4502	5.008
58	0x3fdc	1.965
59	0x4236	3.105
60	0x403f	2.123
61	0x4854	8.66
62	0x4463	4.387
63	0x4075	2.229

unknown_6 f2 [16]
0	0x007e	7.5e-06
1	0x006a	6.3e-06
2	0x803f	-3.76e-06
3	0x80e5	-1.365e-05
4	0x8004	-2.4e-07
5	0x0075	7e-06
6	0x0019	1.5e-06
7	0x8014	-1.2e-06
8	0x0001	6e-08
9	0x8090	-8.6e-06
10	0x8013	-1.13e-06
11	0x0020	1.9e-06
12	0x00ba	1.11e-05
13	0x8010	-9.5e-07
14	0x8000	-0.0
15	0x0000	0.0

sequential_1/batch_normalization/batchnorm/mul;StatefulPartitionedCall/sequential_1/batch_normalization/batchnorm/mul f2 [16]
0	0xac1c	-0.0642
1	0x1d8c	0.005417
2	0x2910	0.03955
3	0x2dea	0.0924
4	0x2295	0.012856
5	0x2b9c	0.05945
6	0x9fbb	-0.00755
7	0x9fb1	-0.00751
8	0x1815	0.001993
9	0x21ae	0.01109
10	0x27d9	0.03065
11	0x0f54	0.0004473
12	0x394f	0.6636
13	0x3948	0.66
14	0x2c26	0.0648
15	0x1cc7	0.004665

sequential_1/batch_normalization/batchnorm/sub;StatefulPartitionedCall/sequential_1/batch_normalization/batchnorm/sub f2 [16]
0	0xc420	-4.125
1	0x34b4	0.294
2	0x3e54	1.582
3	0x3f87	1.882
4	0xbc02	-1.002
5	0x3cd4	1.207
6	0xb8c5	-0.596
7	0xb052	-0.135
8	0x3539	0.3264
9	0xba8d	-0.819
10	0xb84b	-0.5366
11	0xafdc	-0.1228
12	0x371a	0.4438
13	0x397d	0.686
14	0x3c81	1.126
15	0xab3b	-0.0565

sequential_1/batch_normalization_1/batchnorm/sub;StatefulPartitionedCall/sequential_1/batch_normalization_1/batchnorm/sub f2 [16]
0	0xb165	-0.1686
1	0xae60	-0.0996
2	0x311e	0.1599
3	0x3318	0.2217
4	0x2ae9	0.054
5	0xb08b	-0.142
6	0xaab8	-0.0525
7	0x287c	0.03503
8	0xad41	-0.0821
9	0x3739	0.4514
10	0xada3	-0.0881
11	0xa84f	-0.03366
12	0xb3e0	-0.2461
13	0xb561	-0.3362
14	0xa9f1	-0.04642
15	0xb2a2	-0.2073

sequential_1/dense/MatMul;StatefulPartitionedCall/sequential_1/dense/MatMul f2 [64, 464]
0	0xb097	-0.1434
1	0x2910	0.03955
2	0x3063	0.1371
3	0xb52c	-0.3232
4	0x1478	0.001091
5	0x36d8	0.4277
6	0xa78d	-0.0295
7	0xa92d	-0.04044
8	0x2d40	0.08203
9	0xb896	-0.573
10	0xadec	-0.0925
11	0x2b8f	0.05905
12	0x3704	0.4385
13	0x35f7	0.3728
14	0xb060	-0.1367
15	0x3878	0.5586
16	0xb0f4	-0.1548
17	0x2b3a	0.05646
18	0xaa07	-0.0471
19	0xafee	-0.1239
20	0xb0bd	-0.1481
21	0x32bd	0.2106
22	0x24fd	0.01949
23	0x2c70	0.06934
24	0x1f6f	0.00726
25	0xb405	-0.2512
26	0xb336	-0.2253
27	0x2f10	0.11035
28	0x3026	0.1296
29	0x2fdf	0.123
30	0x2192	0.01088
31	0x3334	0.2251
32	0xb44f	-0.2693
33	0xae43	-0.09784
34	0x2896	0.03583
35	0x302b	0.1302
36	0xa58a	-0.02164
37	0xb20c	-0.189
38	0xb156	-0.1667
39	0x2eee	0.1083
40	0x2c60	0.06836
41	0xa452	-0.01688
42	0xb0b2	-0.1467
43	0x2424	0.01617
44	0xb563	-0.3367
45	0xa6b3	-0.02617
46	0x2e87	0.102
47	0x9aa1	-0.003237
48	0xb553	-0.3328
49	0xaeee	-0.1083
50	0xaec1	-0.1055
51	0x34cf	0.3005
52	0xb3c6	-0.2429
53	0xb613	-0.3796
54	0xb023	-0.1293
55	0x3075	0.1393
56	0x24a8	0.01819
57	0x34c8	0.2988
58	0xae57	-0.09906
59	0xac1b	-0.06415
60	0xb5bc	-0.3584
61	0xaa50	-0.04932
62	0x2c98	0.0718
63	0xaaa4	-0.05188
64	0xb76b	-0.4636
65	0xb74c	-0.456
66	0xa063	-0.00857
67	0x38f7	0.6206
68	0xa503	-0.01958
69	0xb71f	-0.445
70	0xaeac	-0.10425
71	0xab13	-0.05527
72	0x2713	0.02763
73	0x32bf	0.2108
74	0x33de	0.2458
75	0xb56b	-0.3386
76	0xb6be	-0.4214
77	0x28d9	0.03787
78	0x3336	0.2253
79	0xaa84	-0.0509
80	0xb702	-0.438
81	0xb4cf	-0.3005
82	0x1d4d	0.005177
83	0x385a	0.544
84	0xac83	-0.0705
85	0xb4a7	-0.2908
86	0xaf8d	-0.118
87	0xaf25	-0.11163
88	0xa7f8	-0.03113
89	0x308c	0.1421
90	0x3568	0.338
91	0xb4dc	-0.3037
92	0xb49a	-0.2876
93	0x2b6a	0.05792
94	0x3376	0.2332
95	0xacbb	-0.0739
96	0xb797	-0.4744
97	0xb5a3	-0.3523
98	0x2695	0.02571
99	0x37d2	0.4888
100	0x2893	0.03574
101	0xb5c8	-0.3613
102	0xb0f1	-0.1544
103	0xa615	-0.02376
104	0x2845	0.03336
105	0x2cc0	0.0742
106	0x305d	0.1364
107	0xb2f3	-0.2172
108	0xb673	-0.403
109	0x9708	-0.001717
110	0x2fde	0.1229
111	0xa73b	-0.02824
112	0xb703	-0.4382
113	0xb404	-0.251
114	0xacfc	-0.0779
115	0x360d	0.3782
116	0xad90	-0.0869
117	0xb4ff	-0.3123
118	0xb2a5	-0.2076
119	0xa446	-0.0167
120	0x2c79	0.0699
121	0x3258	0.1982
122	0x2f7c	0.11694
123	0xb3c0	-0.2422
124	0xb5f2	-0.3716
125	0xa64a	-0.02457
126	0x2e47	0.0981
127	0xa613	-0.02373
128	0xb5a7	-0.3533
129	0xb51a	-0.3188
130	0xaa98	-0.0515
131	0x3795	0.4739
132	0xa873	-0.03476
133	0xb55f	-0.3357
134	0xab62	-0.05768
135	0xb26f	-0.201
136	0xab0b	-0.05502
137	0x3273	0.2015
138	0x32f0	0.2168
139	0xb510	-0.3164
140	0xb575	-0.341
141	0x2dab	0.08856
142	0x3254	0.1978
143	0xa89f	-0.0361
144	0xb765	-0.4622
145	0xb51b	-0.319
146	0x22cf	0.0133
147	0x37a8	0.4785
148	0xa43b	-0.01653
149	0xb4f7	-0.3103
150	0xb09d	-0.1442
151	0xa808	-0.0315
152	0x2b62	0.05768
153	0x289c	0.036
154	0x3553	0.3328
155	0xb4ba	-0.2954
156	0xb4d4	-0.3018
157	0x3119	0.1593
158	0x35b2	0.356
159	0xae12	-0.09485
160	0xb4ec	-0.3076
161	0xb6b2	-0.4185
162	0x26e0	0.02686
163	0x3572	0.3403
164	0x29b7	0.04465
165	0xb6aa	-0.4165
166	0xb0c3	-0.1488
167	0xb0c2	-0.1487
168	0xab21	-0.0557
169	0xaf2a	-0.11194
170	0x36a0	0.414
171	0xb597	-0.3494
172	0xb397	-0.2372
173	0x3270	0.2012
174	0x3526	0.3218
175	0xab12	-0.05524
176	0xb401	-0.2502
177	0xb565	-0.3372
178	0xa56a	-0.02115
179	0x35ad	0.3547
180	0xae44	-0.0979
181	0xb64d	-0.3938
182	0xb071	-0.1388
183	0xb0e4	-0.1528
184	0x1fa6	0.00747
185	0x2412	0.0159
186	0x343e	0.2651
187	0xb2a5	-0.2076
188	0xb3a6	-0.239
189	0x2dcf	0.09076
190	0x2d0d	0.0789
191	0x31d0	0.1816
192	0xb60e	-0.3784
193	0xb22a	-0.1926
194	0xaefa	-0.109
195	0x34c4	0.2979
196	0x2013	0.00796
197	0xb498	-0.287
198	0xad3b	-0.0817
199	0xb0a9	-0.1456
200	0x2268	0.01251
201	0xaa27	-0.04807
202	0x341f	0.2576
203	0xb1ab	-0.1771
204	0xb267	-0.2001
205	0x307a	0.1399
206	0x3105	0.1569
207	0x2229	0.01203
208	0xb5f1	-0.3713
209	0xb45e	-0.273
210	0x1e70	0.006287
211	0x3531	0.3245
212	0x241a	0.01602
213	0xb2ca	-0.2122
214	0xb180	-0.1719
215	0x1ded	0.005787
216	0x18ea	0.0024
217	0xac78	-0.0698
218	0x31cf	0.1815
219	0xb0e6	-0.1531
220	0xb3d7	-0.245
221	0x2d8d	0.08673
222	0x33a9	0.2394
223	0x1e7c	0.006332
224	0xb55c	-0.335
225	0xb354	-0.229
226	0xa7b3	-0.03008
227	0x3480	0.2812
228	0xaeee	-0.1083
229	0xb535	-0.3254
230	0xae72	-0.1007
231	0xad38	-0.08154
232	0x2b3e	0.05658
233	0xab71	-0.05814
234	0x291a	0.03986
235	0xb396	-0.237
236	0xb02e	-0.1306
237	0x2ed8	0.10693
238	0x27e5	0.03084
239	0x30fa	0.1555
240	0xb48a	-0.2837
241	0xb3fd	-0.2496
242	0xa917	-0.03976
243	0x3360	0.2305
244	0xa846	-0.0334
245	0xb1a1	-0.1759
246	0xa4e5	-0.01912
247	0xaf5b	-0.1149
248	0x22d7	0.01336
249	0xa54f	-0.02074
250	0x3275	0.2018
251	0xb026	-0.1296
252	0xb136	-0.1628
253	0x2524	0.02008
254	0x2b06	0.05487
255	0x2350	0.01428

sequential_1/batch_normalization_1/batchnorm/mul;StatefulPartitionedCall/sequential_1/batch_normalization_1/batchnorm/mul f2 [16]
0	0x3331	0.2247
1	0x2f64	0.1155
2	0x3177	0.1708
3	0x3041	0.1329
4	0x2fd0	0.1221
5	0x2cf5	0.07745
6	0x2ee2	0.10754
7	0x2ed8	0.10693
8	0xaeef	-0.10834
9	0x306d	0.1383
10	0x2deb	0.09247
11	0x2f5a	0.11487
12	0x2d97	0.08734
13	0x3291	0.2052
14	0x2ddc	0.09155
15	0x2d69	0.08453

sequential_1/conv1d/conv1d;StatefulPartitionedCall/sequential_1/conv1d/conv1d f2 [16, 1, 10, 121]
0	0xb109	-0.1573
1	0xb184	-0.1724
2	0xb286	-0.2039
3	0xb1b0	-0.1777
4	0xb17b	-0.1713
5	0xb26c	-0.2007
6	0xb5a3	-0.3523
7	0xb266	-0.2
8	0xb39b	-0.2377
9	0xb10c	-0.1577
10	0xb3c1	-0.2423
11	0xb055	-0.1354
12	0xb043	-0.1332
13	0xb295	-0.2057
14	0xb376	-0.2332
15	0xb219	-0.1906
16	0xb21c	-0.1909
17	0xb243	-0.1957
18	0xb1c3	-0.18
19	0xb08b	-0.142
20	0xb228	-0.1924
21	0xadc4	-0.0901
22	0xb0e5	-0.153
23	0xb2a9	-0.2081
24	0xb393	-0.2367
25	0xb003	-0.1254
26	0xaed0	-0.10645
27	0xae49	-0.0982
28	0xb4a0	-0.289
29	0xb1d6	-0.1824
30	0xafc5	-0.1214
31	0xb091	-0.1427
32	0xb2e8	-0.2158
33	0xb18c	-0.1733
34	0xb265	-0.1998
35	0xb1a9	-0.1769
36	0xb188	-0.1729
37	0xb32c	-0.2241
38	0xb199	-0.1749
39	0xb33e	-0.2263
40	0xb3c9	-0.2433
41	0xb3b2	-0.2405
42	0xb253	-0.1976
43	0xb3c3	-0.2426
44	0xb2ac	-0.2085
45	0xb20e	-0.1892
46	0xb418	-0.2559
47	0xaed5	-0.10675
48	0xb4c9	-0.299
49	0xb07c	-0.1401
50	0xb2b7	-0.2098
51	0xb2f2	-0.217
52	0xb2f3	-0.2172
53	0xb1a2	-0.176
54	0xb20c	-0.189
55	0xaf99	-0.1187
56	0xb356	-0.2292
57	0xb1bd	-0.1793
58	0xb34c	-0.228
59	0xb2fd	-0.2184
60	0xb323	-0.223
61	0xb3a3	-0.2386
62	0xb0af	-0.1464
63	0xb018	-0.1279
64	0xb180	-0.1719
65	0xb231	-0.1935
66	0xb310	-0.2207
67	0xb047	-0.1337
68	0xb3fd	-0.2496
69	0xb1d9	-0.1827
70	0xb183	-0.1722
71	0xb05b	-0.1361
72	0xb185	-0.1725
73	0xb4b8	-0.295
74	0xb41e	-0.2573
75	0xb395	-0.2369
76	0xb061	-0.1368
77	0xb43f	-0.2654
78	0xb2d4	-0.2134
79	0xb350	-0.2285
80	0xb24e	-0.197
81	0xb32a	-0.2239
82	0xb204	-0.188
83	0xb2ec	-0.2163
84	0xb469	-0.2756
85	0xb405	-0.2512
86	0xb185	-0.1725
87	0xb11b	-0.1595
88	0xb48c	-0.2842
89	0xb2ff	-0.2186
90	0xb315	-0.2213
91	0xb3cd	-0.2438
92	0xb33a	-0.2258
93	0xb2f1	-0.2169
94	0xb240	-0.1953
95	0xb33b	-0.226
96	0xb3d3	-0.2445
97	0xb360	-0.2305
98	0xb05b	-0.1361
99	0xb19e	-0.1755
100	0xb38e	-0.2361
101	0xafd4	-0.1223
102	0xb0fc	-0.1558
103	0xb48a	-0.2837
104	0xb2c2	-0.2112
105	0xb45c	-0.2725
106	0xb00a	-0.1262
107	0xacd9	-0.07574
108	0xb447	-0.2673
109	0xb1a0	-0.1758
110	0xb1ce	-0.1814
111	0xb1ff	-0.1874
112	0xb2c7	-0.2118
113	0xb0aa	-0.1458
114	0xb33e	-0.2263
115	0xb108	-0.1572
116	0xb138	-0.1631
117	0xb17b	-0.1713
118	0xb466	-0.275
119	0xb5f6	-0.3726
120	0xb502	-0.313
121	0x2aac	0.05212
122	0x283f	0.03317
123	0x1e51	0.00617
124	0xac73	-0.0695
125	0xa99f	-0.0439
126	0xaf3e	-0.11316
127	0xb0d2	-0.1506
128	0xa7e2	-0.03079
129	0xae87	-0.102
130	0xa967	-0.0422
131	0x95fb	-0.00146
132	0xafc1	-0.12115
133	0x1bf5	0.003885
134	0xa9e2	-0.04596
135	0xa9e6	-0.04608
136	0xa8f3	-0.03867
137	0x28fd	0.03897
138	0xaeba	-0.1051
139	0xad1d	-0.0799
140	0xafc4	-0.12134
141	0x9c4a	-0.00419
142	0xa80a	-0.03156
143	0xaa30	-0.04834
144	0xaa40	-0.04883
145	0xae5b	-0.0993
146	0xad1e	-0.07996
147	0xaea7	-0.10394
148	0xae57	-0.09906
149	0xb06d	-0.1383
150	0x2321	0.01392
151	0xaed8	-0.10693
152	0xaad4	-0.05334
153	0xaf33	-0.1125
154	0xac15	-0.0638
155	0xaea5	-0.1038
156	0xaccd	-0.075
157	0xa8c3	-0.0372
158	0x2364	0.014435
159	0xa23e	-0.01219
160	0xa836	-0.0329
161	0xacfb	-0.0778
162	0x1f3c	0.007065
163	0x1768	0.001808
164	0x22f2	0.013565
165	0xad9d	-0.0877
166	0x2404	0.01569
167	0xacab	-0.07294
168	0x27fa	0.03116
169	0xa9b2	-0.0445
170	0xac6e	-0.0692
171	0xac78	-0.0698
172	0xa98e	-0.0434
173	0xa710	-0.02759
174	0xa9f2	-0.04645
175	0xacd4	-0.07544
176	0xaa3e	-0.04877
177	0xa541	-0.02052
178	0xa496	-0.01791
179	0xa3bd	-0.015114
180	0x259e	0.02194
181	0xa61b	-0.02385
182	0xaa85	-0.05093
183	0xac56	-0.06775
184	0xadc2	-0.08997
185	0xab1f	-0.05563
186	0xad6a	-0.0846
187	0x232d	0.014015
188	0x289d	0.03604
189	0xad3c	-0.0818
190	0xac7c	-0.07007
191	0xab59	-0.0574
192	0xa8cb	-0.03745
193	0xa263	-0.012474
194	0xaf43	-0.11346
195	0x2045	0.00834
196	0x2c27	0.0649
197	0x235d	0.01438
198	0xab20	-0.05566
199	0x9be4	-0.003853
200	0x1c01	0.00391
201	0xaea4	-0.10376
202	0x9f9f	-0.007442
203	0x1dd4	0.00569
204	0xacca	-0.0748
205	0xa821	-0.03226
206	0x1e0a	0.005898
207	0xa9db	-0.04575
208	0xad18	-0.0796
209	0x9ddf	-0.005733
210	0xa9ab	-0.04428
211	0x27e6	0.03085
212	0x9957	-0.002607
213	0xa6e7	-0.02696
214	0xa4b4	-0.01837
215	0xac9f	-0.0722
216	0xaec6	-0.10583
217	0xa415	-0.01595
218	0xae41	-0.0977
219	0xaad0	-0.05322
220	0xa6ca	-0.02652
221	0xaa08	-0.04712
222	0x0b1b	0.0002168
223	0xacb1	-0.0733
224	0xa5b4	-0.02228
225	0xad86	-0.0863
226	0xa972	-0.04254
227	0xac55	-0.0677
228	0x1a7c	0.003166
229	0xaded	-0.0926
230	0xaedd	-0.10724
231	0xaa74	-0.0504
232	0xb02c	-0.1304
233	0xad3e	-0.0819
234	0xaac9	-0.053
235	0xac36	-0.0658
236	0xa937	-0.04074
237	0x238c	0.01474
238	0xa8aa	-0.03644
239	0xaebe	-0.10535
240	0xaf41	-0.11334
241	0xad32	-0.0812
242	0x2d8c	0.0867
243	0x306b	0.1381
244	0xa9ce	-0.04535
245	0x2124	0.01004
246	0xa242	-0.01222
247	0x20ae	0.00914
248	0xac58	-0.0679
249	0xa866	-0.03436
250	0x24f8	0.01941
251	0xa915	-0.0397
252	0xab84	-0.05872
253	0xa85f	-0.03415
254	0x29bb	0.04477
255	0xa7b3	-0.03008

sequential_1/conv1d_1/conv1d;StatefulPartitionedCall/sequential_1/conv1d_1/conv1d f2 [16]
0	0x0000	0.0
1	0x0000	0.0
2	0x0000	0.0
3	0x0000	0.0
4	0x0000	0.0
5	0x0000	0.0
6	0x0000	0.0
7	0x0000	0.0
8	0x0000	0.0
9	0x0000	0.0
10	0x0000	0.0
11	0x0000	0.0
12	0x0000	0.0
13	0x0000	0.0
14	0x0000	0.0
15	0x0000	0.0

sequential_1/conv1d_1/conv1d;StatefulPartitionedCall/sequential_1/conv1d_1/conv1d1 f2 [16, 1, 3, 16]
0	0xaeec	-0.10815
1	0xb97f	-0.687
2	0xbc21	-1.032
3	0x39e8	0.7383
4	0x35c6	0.3608
5	0x2d20	0.0801
6	0x34f1	0.3088
7	0x36ec	0.4326
8	0xb899	-0.5747
9	0x3408	0.252
10	0x31db	0.183
11	0xb17d	-0.1715
12	0x2b02	0.05475
13	0xb0a5	-0.1451
14	0xb7c3	-0.485
15	0xb688	-0.4082
16	0x39b3	0.7124
17	0xad33	-0.08124
18	0x3940	0.6562
19	0x2ed7	0.1069
20	0x32c8	0.2119
21	0xa380	-0.01465
22	0x37e4	0.4932
23	0x34c1	0.297
24	0xb919	-0.637
25	0x396f	0.679
26	0x3161	0.1681
27	0xb9c6	-0.7217
28	0xb37f	-0.2343
29	0x2f89	0.11774
30	0xb223	-0.1918
31	0xb010	-0.127
32	0x3869	0.5513
33	0x31f8	0.1865
34	0x3865	0.5493
35	0x39ed	0.7407
36	0xa4a3	-0.01811
37	0x3123	0.1605
38	0x379e	0.476
39	0x2b12	0.05524
40	0xb8b6	-0.589
41	0x38fe	0.624
42	0x3429	0.26
43	0xb953	-0.6655
44	0xab2e	-0.0561
45	0xa2fa	-0.013626
46	0x3338	0.2256
47	0xa6f7	-0.0272
48	0xb3f0	-0.248
49	0xb80a	-0.505
50	0xbe2a	-1.541
51	0x3c85	1.13
52	0x2939	0.0408
53	0xa936	-0.0407
54	0x2a52	0.04938
55	0x36f3	0.4343
56	0x30a5	0.1451
57	0xa92d	-0.04044
58	0x23a5	0.01493
59	0x2cc3	0.0744
60	0x381d	0.514
61	0xb4ed	-0.3079
62	0xb5d0	-0.3633
63	0xb81b	-0.513
64	0x3615	0.3801
65	0x96d7	-0.00167
66	0x3957	0.6675
67	0xba5c	-0.795
68	0x3911	0.6333
69	0xb049	-0.1339
70	0x3523	0.321
71	0xaea6	-0.1039
72	0xba15	-0.7603
73	0x3530	0.3242
74	0xb015	-0.1276
75	0xb5c6	-0.3608
76	0xb472	-0.2778
77	0x33a3	0.2386
78	0xb02e	-0.1306
79	0xa3c4	-0.01517
80	0x9d12	-0.00495
81	0xb0a6	-0.1453
82	0x33fa	0.2493
83	0x3483	0.282
84	0x34bd	0.2961
85	0xb157	-0.1669
86	0x2e4b	0.0983
87	0xb086	-0.1414
88	0xb789	-0.471
89	0x3926	0.6436
90	0x322a	0.1926
91	0xb229	-0.1925
92	0x3431	0.262
93	0x36b4	0.419
94	0x316b	0.1693
95	0x331d	0.2223
96	0x2e21	0.09576
97	0x37bd	0.4836
98	0x3992	0.6963
99	0xb825	-0.518
100	0xac4d	-0.0672
101	0x32fb	0.2181
102	0xb2cd	-0.2125
103	0xac3c	-0.06616
104	0x34f5	0.3098
105	0xb729	-0.4475
106	0xa68b	-0.02556
107	0x2eee	0.1083
108	0xb7e4	-0.4932
109	0x30fc	0.1558
110	0x3725	0.4465
111	0x37f1	0.4963
112	0xb65b	-0.3972
113	0xae4e	-0.0985
114	0xbab3	-0.8374
115	0x30cb	0.1498
116	0x2d93	0.0871
117	0xb01a	-0.1282
118	0xb8d3	-0.603
119	0xb029	-0.13
120	0x3a60	0.797
121	0xb6db	-0.4285
122	0xae44	-0.0979
123	0x35f9	0.3733
124	0x3836	0.5264
125	0x2c69	0.0689
126	0xb030	-0.1309
127	0xab41	-0.05667
128	0x3135	0.1627
129	0xb533	-0.325
130	0xbc20	-1.031
131	0xc0ba	-2.363
132	0x3df7	1.491
133	0xaa7d	-0.0507
134	0x2d91	0.087
135	0xb06f	-0.1385
136	0xb532	-0.3247
137	0xbc5b	-1.089
138	0x2962	0.04205
139	0xa0c8	-0.00934
140	0xb514	-0.3174
141	0xb7d3	-0.489
142	0xb6dc	-0.4287
143	0x2034	0.00821
144	0x38e3	0.611
145	0x3813	0.5093
146	0x411e	2.559
147	0xba18	-0.7617
148	0x357e	0.3433
149	0x364b	0.3933
150	0x3218	0.1904
151	0xb0e8	-0.1533
152	0xb6ee	-0.433
153	0xac4c	-0.06714
154	0xb10c	-0.1577
155	0xb64f	-0.3943
156	0x1ddb	0.00572
157	0xa7b0	-0.03003
158	0x39e8	0.7383
159	0x36ba	0.4204
160	0xa838	-0.03296
161	0xb0b6	-0.1472
162	0xb533	-0.325
163	0x36ae	0.4175
164	0x27f9	0.03114
165	0x31fc	0.187
166	0xb2df	-0.2147
167	0x340c	0.253
168	0x38dc	0.6074
169	0xb577	-0.3416
170	0xb114	-0.1587
171	0x37cf	0.488
172	0x9ad0	-0.003326
173	0xadd3	-0.091
174	0x3288	0.2041
175	0xb424	-0.2588
176	0xb30c	-0.2202
177	0xb43c	-0.2646
178	0xb9fb	-0.7476
179	0x330e	0.2205
180	0x2ad3	0.0533
181	0x34fb	0.3113
182	0xaf6c	-0.11597
183	0x36c9	0.424
184	0x3709	0.4397
185	0xb72b	-0.448
186	0xb07d	-0.1403
187	0x3646	0.392
188	0x9969	-0.002642
189	0xb029	-0.13
190	0x2b87	0.0588
191	0xb1b7	-0.1786
192	0x355c	0.335
193	0x322b	0.1927
194	0x3a43	0.7827
195	0xb4c5	-0.298
196	0xafc7	-0.1215
197	0x304d	0.1344
198	0xb561	-0.3362
199	0xb6f7	-0.4353
200	0xb1cc	-0.1812
201	0xb75d	-0.4602
202	0xb506	-0.314
203	0xae32	-0.0968
204	0xb8ad	-0.5845
205	0x3994	0.6973
206	0x234f	0.014275
207	0x3406	0.2515
208	0x9dba	-0.005592
209	0xafc3	-0.1213
210	0xb918	-0.6367
211	0x3175	0.1705
212	0x335e	0.2302
213	0x3004	0.1255
214	0xb185	-0.1725
215	0xb23c	-0.1948
216	0x2b25	0.05582
217	0xba1b	-0.763
218	0xb286	-0.2039
219	0x2aff	0.05466
220	0x313b	0.1635
221	0xbd33	-1.3
222	0x23b9	0.01508
223	0x30db	0.1517
224	0x3885	0.565
225	0xb68b	-0.409
226	0x3112	0.1584
227	0xb015	-0.1276
228	0x395f	0.6714
229	0xac38	-0.0659
230	0x1b96	0.003704
231	0xb331	-0.2247
232	0xbaee	-0.866
233	0x353d	0.3274
234	0xb118	-0.1592
235	0xb1d2	-0.1819
236	0x3a4e	0.788
237	0x39e8	0.7383
238	0xaf97	-0.1186
239	0x2f24	0.1116
240	0xb916	-0.6357
241	0xb430	-0.2617
242	0xbdca	-1.447
243	0x34f5	0.3098
244	0xac5f	-0.0683
245	0xb1c1	-0.1798
246	0xb21d	-0.191
247	0x2864	0.0343
248	0x3732	0.4497
249	0xb37e	-0.2341
250	0x2b37	0.05637
251	0x3894	0.5723
252	0xa840	-0.0332
253	0xb19a	-0.175
254	0xb198	-0.1748
255	0xb6b1	-0.4182
