tensorflow/frozen_models/tiny/1606700489/model.tflite (tflite, 20480 bytes, 11 tensors)

unknown_0 f4 [8]
00000000: cc44 9b34 49a0 4e35 23fb 2fb6 fece 5fb5
00000010: 643c 23b4 1a3d b634 1a17 0734 04f3 1d32
2.8921056e-07 7.6974226e-07 -2.6223213e-06 -8.3375187e-07 -1.5202528e-07 3.39446e-07 1.2581259e-07 9.193858e-09

unknown_12 f4 [32]
00000000: 7637 0442 d2f8 cc40 310c a040 06b3 be40
00000010: ebb0 0541 a0cd 4041 8db8 0b42 eb8f 4441
00000020: ecad 2e3f 16aa b040 559c e841 2f32 01c0
00000030: 002c f240 76a5 bf40 da49 1342 ceb3 c440
00000040: ad4a 0d42 7a60 dc41 1548 3741 ac03 f641
00000050: b18a 2b41 b6c4 8041 f16a 873f d549 0741
00000060: 7638 64c1 9490 f041 cc27 3c40 debe 743f
00000070: d91e 2f41 3b6e 3641 e965 ed41 eb6c ff41
33.05416 6.4053736 5.001488 5.9593534 8.355693 12.050201 34.930225 12.285136
0.68234134 5.5207624 29.076334 -2.018688 7.567871 5.988948 36.82212 6.146949
35.322926 27.547108 11.455098 30.751793 10.72136 16.09605 1.0579511 8.455525
-14.263784 30.070595 2.939929 0.9560374 10.945031 11.401912 29.67476 31.928183

unknown_6 f4 [8]
00000000: 39b3 ca37 3eec b537 1741 b937 54dc c637
00000010: b61c 88b7 e9d8 8ab7 da95 51b7 8015 73b7
2.4163734e-05 2.168689e-05 2.2084028e-05 2.3706038e-05 -1.6225833e-05 -1.6551889e-05 -1.2492261e-05 -1.44889345e-05

sequential_1/batch_normalization/batchnorm/mul;StatefulPartitionedCall/sequential_1/batch_normalization/batchnorm/mul f4 [8]
00000000: ad0e 30bd 0609 96bd 5986 bb3e 01fb 1e3a
00000010: 7af3 273e 48fa 073e 9ccc a83c fcb1 28bb
-0.042982746 -0.0732594 0.36625937 0.0006064624 0.16401473 0.13279068 0.020605378 -0.0025740853

sequential_1/batch_normalization/batchnorm/sub;StatefulPartitionedCall/sequential_1/batch_normalization/batchnorm/sub f4 [8]
00000000: c6da 05c0 a1fb 6cc0 0297 9f41 60fa cebd
00000010: ac1c e540 d9e2 e6c0 5dd6 c0bf a8ea 1c3e
-2.0914779 -3.7028582 19.948734 -0.10106349 7.15975 -7.2151914 -1.5065418 0.1532389

sequential_1/batch_normalization_1/batchnorm/sub;StatefulPartitionedCall/sequential_1/batch_normalization_1/batchnorm/sub f4 [8]
00000000: d7de b93e 449b 9d3e 2695 8d3e 8252 733e
00000010: 5747 6dbe 9b86 62be 70c2 0dbe 0a52 88be
0.36302826 0.3078252 0.27652854 0.23761943 -0.23171745 -0.2212166 -0.13843703 -0.2662509

sequential_1/dense/MatMul;StatefulPartitionedCall/sequential_1/dense/MatMul i1 [32, 58] scale=0.044332195 zero_point=0
00000000: 0311 f918 1119 0b13 f5fc 04e6 ed21 c37f
00000010: bd41 ebea ff05 f62a dc21 cc06 dff2 e30b
00000020: f826 f813 e5f9 ec15 f214 e7eb eef2 e813
00000030: e50e ecec f0f8 ed19 eded 570c effe f701
00000040: c214 d10f dd0d e40e ddfe eff4 de03 e50e
00000050: e40c f701 0212 fd14 fa01 fefc f212 f934
00000060: f91f ff09 0316 fb2a 022f f517 ff04 03f3
00000070: 04d6 06b4 f1f3 0ef5 10fc 120a 0009 e615
00000080: e422 f807 edf8 f710 ee1f f30e f7ff 0308
00000090: ff04 fff2 ff03 f93a 012d 0ce7 07d1 06e7
000000a0: fd04 f40c fcef 03d7 08e2 080b f971 87fb
000000b0: a3fa b70c ba02 a8fa ccfe e504 03f8 ecf2
000000c0: f1fd f9ff fbfa fef8 05fd 0100 fffc 01fc
000000d0: fcfc 0002 05fb fef1 03fb fffd 00f2 02ec
000000e0: 02ee 01ee 01e0 fee4 020f 030d fe16 0816
000000f0: 160a 1402 1302 0dff 14f5 09fa 0600 0d03
0.13299659 0.7536473 -0.31032535 1.0639727 0.7536473 1.1083049 0.48765415 0.8423117
-0.48765415 -0.17732878 0.17732878 -1.1526371 -0.8423117 1.4629624 -2.704264 5.630189
-2.970257 2.8815928 -0.9309761 -0.9753083 -0.044332195 0.22166097 -0.44332194 1.8619522
-1.5959591 1.4629624 -2.3052742 0.26599318 -1.4629624 -0.6206507 -1.2856337 0.48765415
-0.35465756 1.6846234 -0.35465756 0.8423117 -1.1969693 -0.31032535 -0.8866439 0.9309761
-0.6206507 0.8866439 -1.1083049 -0.9309761 -0.79797953 -0.6206507 -1.0639727 0.8423117
-1.1969693 0.6206507 -0.8866439 -0.8866439 -0.7093151 -0.35465756 -0.8423117 1.1083049
-0.8423117 -0.8423117 3.856901 0.53198636 -0.7536473 -0.08866439 -0.39898977 0.044332195
-2.7485962 0.8866439 -2.0836132 0.6649829 -1.5516268 0.57631856 -1.2413014 0.6206507
-1.5516268 -0.08866439 -0.7536473 -0.53198636 -1.5072947 0.13299659 -1.1969693 0.6206507
-1.2413014 0.53198636 -0.39898977 0.044332195 0.08866439 0.79797953 -0.13299659 0.8866439
-0.26599318 0.044332195 -0.08866439 -0.17732878 -0.6206507 0.79797953 -0.31032535 2.3052742
-0.31032535 1.3742981 -0.044332195 0.39898977 0.13299659 0.9753083 -0.22166097 1.8619522
0.08866439 2.0836132 -0.48765415 1.0196404 -0.044332195 0.17732878 0.13299659 -0.57631856
0.17732878 -1.8619522 0.26599318 -3.3692467 -0.6649829 -0.57631856 0.6206507 -0.48765415
0.7093151 -0.17732878 0.79797953 0.44332194 0.0 0.39898977 -1.1526371 0.9309761
-1.2413014 1.5072947 -0.35465756 0.31032535 -0.8423117 -0.35465756 -0.39898977 0.7093151
-0.79797953 1.3742981 -0.57631856 0.6206507 -0.39898977 -0.044332195 0.13299659 0.35465756
-0.044332195 0.17732878 -0.044332195 -0.6206507 -0.044332195 0.13299659 -0.31032535 2.5712674
0.044332195 1.9949487 0.53198636 -1.1083049 0.31032535 -2.0836132 0.26599318 -1.1083049
-0.13299659 0.17732878 -0.53198636 0.53198636 -0.17732878 -0.7536473 0.13299659 -1.81762
0.35465756 -1.3299658 0.35465756 0.48765415 -0.31032535 5.009538 -5.364196 -0.22166097
-4.1228943 -0.26599318 -3.2362502 0.53198636 -3.1032536 0.08866439 -3.9012332 -0.26599318
-2.3052742 -0.08866439 -1.1969693 0.17732878 0.13299659 -0.35465756 -0.8866439 -0.6206507
-0.6649829 -0.13299659 -0.31032535 -0.044332195 -0.22166097 -0.26599318 -0.08866439 -0.35465756
0.22166097 -0.13299659 0.044332195 0.0 -0.044332195 -0.17732878 0.044332195 -0.17732878
-0.17732878 -0.17732878 0.0 0.08866439 0.22166097 -0.22166097 -0.08866439 -0.6649829
0.13299659 -0.22166097 -0.044332195 -0.13299659 0.0 -0.6206507 0.08866439 -0.8866439
0.08866439 -0.79797953 0.044332195 -0.79797953 0.044332195 -1.4186302 -0.08866439 -1.2413014
0.08866439 0.6649829 0.13299659 0.57631856 -0.08866439 0.9753083 0.35465756 0.9753083
0.9753083 0.44332194 0.8866439 0.08866439 0.8423117 0.08866439 0.57631856 -0.044332195
0.8866439 -0.48765415 0.39898977 -0.26599318 0.26599318 0.0 0.57631856 0.13299659

sequential_1/batch_normalization_1/batchnorm/mul;StatefulPartitionedCall/sequential_1/batch_normalization_1/batchnorm/mul f4 [8]
00000000: 9d8d 883d 772e 953d 5f05 8a3d 8fd8 a73d
00000010: 52bf 9d3d fdfd 893d cbee 983d f436 8e3d
0.066676356 0.07284253 0.06739306 0.08195602 0.07702507 0.067378975 0.07467421 0.06944075

sequential_1/conv1d/conv1d;StatefulPartitionedCall/sequential_1/conv1d/conv1d i1 [8, 1, 10, 121] scale=0.017351605 zero_point=0
00000000: 0a17 0c17 1112 140b 0e0d 110c 0e08 0911
00000010: 110d 0810 080c 090d 090e 090b 100b 0b12
00000020: 1111 0812 0f0d 0a0c 0e07 0409 0d0d 0b0f
00000030: 1008 0f10 110a 0e07 0d0f 0905 0911 0a0b
00000040: 0c0b 0d0b 0a0c 1312 1008 090b 0e07 0c10
00000050: 030d 1008 0b11 0d0b 0a0c 0d0b 090f 0d13
00000060: 0a0a 120c 0d13 0910 0a09 0d0b 090b 1112
00000070: 0910 1411 0d11 0d14 0afa f9ed f5f1 f3fb
00000080: f4f4 faf4 f4fc f8f6 fef8 f9f3 f7f7 f8fa
00000090: fff7 f8fc f9fb fbf6 f7f6 f5f8 fdf3 f8fa
000000a0: f3fb f8f2 f8fa f6f2 fdf7 f1f9 f8f6 f5fd
000000b0: f1f2 fdf7 f8fa f9f7 f9f4 fbf2 f5f4 f4f9
000000c0: f5f6 fbf7 f401 fcfa f9f8 f3f5 f2f8 fcf4
000000d0: f8f7 f6f7 fbf4 f4f7 fcf5 f0f6 f4f1 f8f6
000000e0: faf6 f6f9 f9f4 f8f3 f5f7 f3f7 f5f6 f4f0
000000f0: f1f6 fe01 fc02 01fd 00fd fffe fbfd 00fd
0.17351605 0.39908692 0.20821926 0.39908692 0.29497728 0.31232888 0.3470321 0.19086766
0.24292247 0.22557086 0.29497728 0.20821926 0.24292247 0.13881284 0.15616444 0.29497728
0.29497728 0.22557086 0.13881284 0.27762568 0.13881284 0.20821926 0.15616444 0.22557086
0.15616444 0.24292247 0.15616444 0.19086766 0.27762568 0.19086766 0.19086766 0.31232888
0.29497728 0.29497728 0.13881284 0.31232888 0.26027408 0.22557086 0.17351605 0.20821926
0.24292247 0.121461235 0.06940642 0.15616444 0.22557086 0.22557086 0.19086766 0.26027408
0.27762568 0.13881284 0.26027408 0.27762568 0.29497728 0.17351605 0.24292247 0.121461235
0.22557086 0.26027408 0.15616444 0.086758025 0.15616444 0.29497728 0.17351605 0.19086766
0.20821926 0.19086766 0.22557086 0.19086766 0.17351605 0.20821926 0.3296805 0.31232888
0.27762568 0.13881284 0.15616444 0.19086766 0.24292247 0.121461235 0.20821926 0.27762568
0.052054815 0.22557086 0.27762568 0.13881284 0.19086766 0.29497728 0.22557086 0.19086766
0.17351605 0.20821926 0.22557086 0.19086766 0.15616444 0.26027408 0.22557086 0.3296805
0.17351605 0.17351605 0.31232888 0.20821926 0.22557086 0.3296805 0.15616444 0.27762568
0.17351605 0.15616444 0.22557086 0.19086766 0.15616444 0.19086766 0.29497728 0.31232888
0.15616444 0.27762568 0.3470321 0.29497728 0.22557086 0.29497728 0.22557086 0.3470321
0.17351605 -0.10410963 -0.121461235 -0.3296805 -0.19086766 -0.26027408 -0.22557086 -0.086758025
-0.20821926 -0.20821926 -0.10410963 -0.20821926 -0.20821926 -0.06940642 -0.13881284 -0.17351605
-0.03470321 -0.13881284 -0.121461235 -0.22557086 -0.15616444 -0.15616444 -0.13881284 -0.10410963
-0.017351605 -0.15616444 -0.13881284 -0.06940642 -0.121461235 -0.086758025 -0.086758025 -0.17351605
-0.15616444 -0.17351605 -0.19086766 -0.13881284 -0.052054815 -0.22557086 -0.13881284 -0.10410963
-0.22557086 -0.086758025 -0.13881284 -0.24292247 -0.13881284 -0.10410963 -0.17351605 -0.24292247
-0.052054815 -0.15616444 -0.26027408 -0.121461235 -0.13881284 -0.17351605 -0.19086766 -0.052054815
-0.26027408 -0.24292247 -0.052054815 -0.15616444 -0.13881284 -0.10410963 -0.121461235 -0.15616444
-0.121461235 -0.20821926 -0.086758025 -0.24292247 -0.19086766 -0.20821926 -0.20821926 -0.121461235
-0.19086766 -0.17351605 -0.086758025 -0.15616444 -0.20821926 0.017351605 -0.06940642 -0.10410963
-0.121461235 -0.13881284 -0.22557086 -0.19086766 -0.24292247 -0.13881284 -0.06940642 -0.20821926
-0.13881284 -0.15616444 -0.17351605 -0.15616444 -0.086758025 -0.20821926 -0.20821926 -0.15616444
-0.06940642 -0.19086766 -0.27762568 -0.17351605 -0.20821926 -0.26027408 -0.13881284 -0.17351605
-0.10410963 -0.17351605 -0.17351605 -0.121461235 -0.121461235 -0.20821926 -0.13881284 -0.22557086
-0.19086766 -0.15616444 -0.22557086 -0.15616444 -0.19086766 -0.17351605 -0.20821926 -0.27762568
-0.26027408 -0.17351605 -0.03470321 0.017351605 -0.06940642 0.03470321 0.017351605 -0.052054815
0.0 -0.052054815 -0.017351605 -0.03470321 -0.086758025 -0.052054815 0.0 -0.052054815

sequential_1/conv1d_1/conv1d;StatefulPartitionedCall/sequential_1/conv1d_1/conv1d f4 [8]
00000000: 0000 0000 0000 0000 0000 0000 0000 0000
00000010: 0000 0000 0000 0000 0000 0000 0000 0000
0.0 0.0 0.0 0.0 0.0 0.0 0.0 0.0

sequential_1/conv1d_1/conv1d;StatefulPartitionedCall/sequential_1/conv1d_1/conv1d1 f4 [8, 1, 3, 8]
00000000: 2654 3c40 ee61 4b40 87ef b83e 303e 06be
00000010: 878f bbbf 5147 033e 0cdf dc3f 1e41 16be
00000020: 347d ae3e 85cb 26bf 2ae7 91bd a19d 3dbe
00000030: 1e32 ab3e d952 533e 0f17 123f 9972 fc3d
00000040: bee0 cfbe d7da 54bf 6314 82bd a0d3 f33c
00000050: f7d4 6a3e cd3d 71be 8d6b 1cbe 8c15 c23d
00000060: 3bad 4040 1a8f 4640 05da 773e e271 243e
00000070: 540a cdbf e52b 48be 3a67 ef3f eb4c 9fbd
00000080: cebf d03e 86e9 28bf 973a 4dbd d5ff 383d
00000090: c44e 273f 98bd 883e 3998 103f cf99 873e
000000a0: f467 d2be 1c01 3bbf 44f4 7fbb 4601 273e
000000b0: 3a58 2b3f 3802 8cbd 640f 06bf 72b5 b83b
000000c0: 0bd8 3d40 7bad 2f40 e86d ad3e 95a4 a9bd
000000d0: e3fb d7bf 4fee ddbd bcae e93f a124 45bd
000000e0: b973 973e fdb1 d2be e369 31bc 9784 f8b8
000000f0: 9849 d73e 9728 0f3e 30c3 343f 26ca 58be
00000100: 95b0 aabe 54e0 24bf e4bd bbbd 28c3 abbe
00000110: f72a 113e 1dd4 213e 4ec4 39be 08a9 17bc
00000120: c559 4440 9567 4540 f127 9c3e 5f8e 55be
00000130: 7b0e 9abf 4a18 35be a7a7 f93f 7e9f b63c
00000140: b268 de3e 18b9 41bf cb9a a7bd 4d49 603b
00000150: ff78 a13e 357d 363e 5b93 223f f00a 933d
00000160: 0170 8bbe 3965 0fbf b3d2 49be da26 d3bd
00000170: ad94 873c 6bbe d8bd e1f1 92be 1562 9fbe
00000180: 4b4c 3cbf 7d6f 4f3d 5dfb a53d 5480 14be
00000190: 1f94 c2bc c406 8ebe 3ee8 7abf 560d 9b3d
000001a0: 1827 773f 1b13 bcbd ef63 a4bd f65b fc3d
000001b0: 8ceb 5f3d f406 c1bd a112 0240 f362 da3c
000001c0: 033f 5340 4130 84be db68 0abf f43d a3bc
000001d0: 1f39 563d 84a3 f03f a4e5 8440 3d93 dfbd
000001e0: d598 46bf 48bc c53d d824 4a3d da91 4dbc
000001f0: 1362 f53c 2295 8cbe 9307 7fbf 7d4c dbbc
00000200: fcb3 6a3f 441c 1abd 1668 7dbd c246 763b
00000210: 7222 693d 9968 09bd 1f5f 0140 d83d 22be
00000220: 110a 5c40 4c61 57be 12e0 0ebf 007a 47be
00000230: 85ba 3f3d 562e fa3f 7dc7 8640 b5e4 093c
00000240: 2a5b 28bf 8a69 c43d 8bc0 683d 1b98 193e
00000250: 6eaa 063b 4327 98be 5d81 5bbf 4f93 bbbd
00000260: 9df7 5f3f 1bfa 5dbd 38d3 33bc 5f7d f43d
00000270: 16a2 a23d fc62 d23a 1d30 e13f 4e8f e63c
00000280: a8b7 5c40 d0f0 33be 9fc9 12bf 3a43 32bd
00000290: 998d c6bc cdae fc3f 4951 8640 288a 85be
000002a0: 2cc8 47bf 9e65 2d3e 8fde 3c3d 7fda 83bd
000002b0: 5eb4 053a 9818 cebe 157d 81bf 3237 8d3e
000002c0: 989e 933f 4512 babd 05bc 26bd fd70 70bd
000002d0: 9be5 403c 5658 efbd 3f3a 0640 4c54 383e
000002e0: 7786 5d40 78cf 0bbe 9966 02bf 437f dbbe
000002f0: bcc1 e63c c568 e93f 4b89 8840 4ba4 1dbe
2.942636 3.1778522 0.36120245 -0.1310966 -1.4653176 0.12820174 1.7255569 -0.14673278
0.34079897 -0.65154296 -0.07124169 -0.18517162 0.33436674 0.20637073 0.57066435 0.12326545
-0.40601152 -0.83146423 -0.06351545 0.029763997 0.22932802 -0.23558731 -0.15275402 0.09476766
3.0105731 3.1024842 0.24204262 0.16059068 -1.6018777 -0.19547994 1.8703377 -0.07778343
0.40771335 -0.6598133 -0.050104704 0.045165855 0.6535456 0.2670715 0.56482273 0.26484534
-0.41094935 -0.7304857 -0.0039055506 0.1630908 0.669315 -0.06836361 -0.52367234 0.0056368643
2.9663112 2.7449634 0.33872914 -0.08283345 -1.6873745 -0.108364694 1.825645 -0.048130635
0.29580477 -0.4115142 -0.010828468 -0.00011850258 0.42048335 0.13980328 0.7061033 -0.21170864
-0.33337846 -0.644048 -0.09167078 -0.3354733 0.14176546 0.15803571 -0.1814129 -0.009256609
3.067979 3.0844471 0.30499223 -0.20855092 -1.2035669 -0.17685047 1.9504288 0.022292849
0.4343925 -0.75673056 -0.08183821 0.0034223378 0.31537625 0.178212 0.63506097 0.071798205
-0.2723389 -0.5601383 -0.19709282 -0.10310145 0.016550386 -0.10583194 -0.28700164 -0.31129518
-0.73553914 0.050643433 0.08104584 -0.14502078 -0.02375227 -0.27739537 -0.98010623 0.07570903
0.9654403 -0.091833316 -0.08026873 0.12322228 0.054667994 -0.09425154 2.032387 0.02665851
3.300721 -0.25818065 -0.54066247 -0.019927002 0.05230057 1.8799901 4.1530323 -0.10916755
-0.77576953 0.096550524 0.049351543 -0.012546981 0.029953992 -0.2745753 -0.9962093 -0.02676987
0.91680884 -0.037624612 -0.061866842 0.0037578796 0.056917615 -0.033547018 2.0214307 -0.15843904
3.4381144 -0.2103321 -0.55810654 -0.19480133 0.04680874 1.9545391 4.2118516 0.008416344
-0.65764105 0.095904425 0.05682425 0.1499943 0.0020548361 -0.29717454 -0.8574427 -0.09158956
0.874872 -0.054193597 -0.010975651 0.11937975 0.07941072 0.0016051228 1.7592808 0.028144505
3.4487095 -0.17572331 -0.573389 -0.043521143 -0.02423744 1.9740845 4.1974225 -0.26081967
-0.78039813 0.16933295 0.046110686 -0.06438159 0.0005100424 -0.4025314 -1.0116297 0.27581173
1.1532774 -0.09085516 -0.040706653 -0.058701504 0.011773492 -0.116867706 2.097305 0.18000907
3.461332 -0.13653362 -0.509378 -0.4287053 0.028168552 1.8235098 4.2667594 -0.15394704
